src/checkpoints/policy_final.pt (torch, 250761 bytes, 24 tensors)

actor_logstd f4 [5]
0	0x402c8a31	2.6959345
1	0x400fe6af	2.2484548
2	0x403e1cea	2.9705148
3	0x402f4c8e	2.7390475
4	0x40307969	2.7574103

shared.0.weight f4 [128, 20]
0	0xbf687df3	-0.90817183
1	0x3f16d5fc	0.58920264
2	0xbdf38866	-0.1189125
3	0x3f84a55f	1.0362967
4	0x3e944305	0.28957382
5	0x3f7ad140	0.9797554
6	0xbf82a5d5	-1.0206858
7	0x3edb933f	0.42885777
8	0xbf491bd5	-0.78558093
9	0xbec9e480	-0.39432144
10	0xbf0edb2f	-0.558032
11	0xbf079e4f	-0.52975935
12	0xbc99412e	-0.018707838
13	0x3df1e24e	0.11810742
14	0xbe38ac29	-0.18034424
15	0xbf43320b	-0.76248235
16	0x3f09605c	0.5366266
17	0xbe8d79e2	-0.27632052
18	0x3f82d2b4	1.0220551
19	0x3f109be5	0.56487876
20	0x3f349a27	0.7054772
21	0x3f17d30c	0.59306407
22	0x3f96f8e4	1.1794705
23	0x3dc0846a	0.09400256
24	0x3f52d940	0.8236275
25	0x3faa69ef	1.3313578
26	0xbb9f186c	-0.0048552062
27	0x3f406368	0.7515168
28	0x3f851ac8	1.0398798
29	0xbf79b0fb	-0.97535676
30	0xbd3a1d83	-0.0454383
31	0x3f162ff5	0.58666927
32	0xbeafff50	-0.34374475
33	0xbf2b576f	-0.6693029
34	0xbf10a96c	-0.5650852
35	0x3efc430b	0.492699
36	0x3f2b339e	0.66875637
37	0x3fb34434	1.4005189
38	0x3d14e624	0.03635229
39	0x3f5f2684	0.87168145
40	0x3f408aab	0.7521159
41	0xbd254573	-0.040349435
42	0xbfb30ce5	-1.398831
43	0xbe022eee	-0.12713215
44	0x3f2b1731	0.6683226
45	0x3ddb6722	0.107130304
46	0xbf668c45	-0.90057784
47	0xbfcb8e11	-1.590273
48	0x3e9ae275	0.30250898
49	0xbfb311d7	-1.3989819
50	0xbf2e9e6b	-0.68210477
51	0xbedb50a3	-0.42834958
52	0xbe1fd3ba	-0.15608111
53	0x3dc2c1b0	0.09509599
54	0xbe377779	-0.17916669
55	0x3f726ee9	0.94700485
56	0xbd383fbf	-0.044982668
57	0xbfa49eeb	-1.2860998
58	0xbdc0d78c	-0.09416112
59	0x3f3176c5	0.6932185
60	0x3e2b38c3	0.16720872
61	0x3e4754a1	0.19465877
62	0x3cff680b	0.031177541
63	0xbe1e006e	-0.15429851
64	0x3dd3b2ea	0.103368595
65	0x3dd66c21	0.10469843
66	0x401b7079	2.4287398
67	0x4096e84e	4.7158575
68	0xbf6b31d9	-0.91872936
69	0x3eaec068	0.3413117
70	0x3f33cb04	0.7023165
71	0xbe8262fc	-0.25466144
72	0xbe09fe45	-0.13475902
73	0x3eebc7c2	0.4605084
74	0xbed2b425	-0.41153064
75	0x3d589b46	0.052882455
76	0xbe453721	-0.19259311
77	0x3e0f3ea7	0.13988744
78	0xbd658caf	-0.05604237
79	0xbc68cf89	-0.0142096365
80	0x3efd3e73	0.49461707
81	0x3e089b65	0.13340528
82	0xbe8efefd	-0.27928916
83	0x3ecb9a31	0.39766076
84	0x3e3f2d19	0.18669547
85	0x3f37a33c	0.7173345
86	0x3cdd84d9	0.027040886
87	0x3f21b288	0.6316304
88	0x3f5a66c9	0.8531309
89	0x4001ad85	2.0262158
90	0x3f43e07d	0.76514417
91	0x3ed70393	0.41994914
92	0x3d0b2032	0.03396625
93	0xbeef94aa	-0.4679311
94	0x3ea3bad4	0.31978476
95	0x3eeb0ce1	0.45908263
96	0xbc8c0d2a	-0.01709612
97	0xbe869024	-0.26281846
98	0x3eb69219	0.3565834
99	0x3e15f7cc	0.14645308
100	0xbdd64976	-0.1046323
101	0x3d87864c	0.06617412
102	0x3eef830a	0.46779662
103	0xbf831d5a	-1.0243332
104	0x3f593672	0.848487
105	0xbf1f6650	-0.6226549
106	0xbdbab8e5	-0.09117297
107	0x3efa1359	0.48842886
108	0x3f79e4de	0.9761485
109	0x3f357922	0.7088796
110	0xbe14ca72	-0.14530352
111	0xbf2cb850	-0.6746874
112	0x3ee1c8b4	0.44098437
113	0x3f225119	0.63404995
114	0x3e176713	0.14785413
115	0xbeaa9d71	-0.33323243
116	0x3e9ab171	0.30213502
117	0x3f5a59a3	0.85293025
118	0xbfa1673b	-1.2609628
119	0x3f62d84c	0.8861129
120	0x3e9fc356	0.31203717
121	0x3e5561c9	0.20838083
122	0xbe69aeb7	-0.22820555
123	0x3f001a44	0.5004008
124	0x3dd6bf3b	0.10485693
125	0xbf58f5ec	-0.84750247
126	0xc052fe96	-3.2967887
127	0xbf32920d	-0.69754106
128	0xbf41ab85	-0.75652343
129	0xc015b2ce	-2.3390384
130	0xbec88627	-0.3916485
131	0xbe20f997	-0.15720211
132	0xbd02d5e2	-0.031942256
133	0x3e4c0d07	0.19926845
134	0xbc0d9fdd	-0.008644071
135	0x3ea16efa	0.3152998
136	0x3e204f7e	0.15655324
137	0x3d06fbc5	0.03295495
138	0x3e8f2e22	0.27964884
139	0x3e22261b	0.15834849
140	0x3cf33440	0.029688
141	0xbe18caec	-0.14921159
142	0xbd75a674	-0.059973195
143	0xbe809d18	-0.25119853
144	0xbd90e4ac	-0.07074866
145	0xbfa088d2	-1.2541754
146	0xbf7ce277	-0.9878306
147	0x3ed2f0b2	0.4119926
148	0xc02f2d6e	-2.7371478
149	0xbcef428b	-0.029206535
150	0x3e6c2b61	0.23063423
151	0x3e941a83	0.28926477
152	0x3d28dab5	0.0412242
153	0xbe81ce78	-0.25352836
154	0xbee57c8a	-0.44821578
155	0xbe06e68c	-0.13173884
156	0xbd91338f	-0.07089912
157	0x3e9a696a	0.3015855
158	0xbd22cefd	-0.03974818
159	0xbd957b66	-0.07298927
160	0x3e767896	0.24069437
161	0xbcace5f6	-0.021105748
162	0x3f25ce5f	0.6476802
163	0xbf07cb54	-0.5304463
164	0xbf4ecf9f	-0.80785555
165	0xbf3624b3	-0.7114975
166	0xc0404b18	-3.0045834
167	0xbf99cd12	-1.2015707
168	0x3fb37c58	1.4022322
169	0xbf8f8e55	-1.1215311
170	0x3cdbda8b	0.026837608
171	0x3dbdfe7b	0.09277054
172	0xbe8f5b1c	-0.27999198
173	0xbf49eee3	-0.7888014
174	0xbebb7cf4	-0.3661877
175	0x3ec346ed	0.3814005
176	0x3db5ed5b	0.088831626
177	0x3f10b717	0.5652937
178	0xbeb37028	-0.35046506
179	0xbf455acd	-0.77091676
180	0xbe491ef8	-0.1964072
181	0xbef39380	-0.4757347
182	0x3ecd1816	0.4005744
183	0x3ef8e572	0.48612553
184	0x3d524781	0.051337723
185	0x3f738f00	0.95140076
186	0x3f340b59	0.70329815
187	0x3e7a5faa	0.24450555
188	0x3e83ce72	0.25743443
189	0x3e3a6abd	0.1820478
190	0xbf37cf3e	-0.718006
191	0xbf42f78b	-0.7615897
192	0x3c5c28b8	0.0134374425
193	0xbe4e80aa	-0.20166269
194	0xbe031322	-0.12800267
195	0x3e45cebe	0.19317147
196	0xbe1d7f2a	-0.1538054
197	0x3ea644fe	0.32474512
198	0x3f071d7d	0.5277937
199	0x3e98c74f	0.2983956
200	0x3f1606f8	0.58604383
201	0x3f10aacc	0.56510615
202	0xbfb72291	-1.4307424
203	0xbe5c42cd	-0.21509857
204	0x3f5d041e	0.8633441
205	0x3f60345c	0.87579894
206	0x3fe6670f	1.8000201
207	0xbf112551	-0.56697565
208	0xbf67e2f8	-0.905807
209	0xbe10d8bf	-0.14145182
210	0x3ed61728	0.41814542
211	0xbe698c07	-0.22807322
212	0xbbe89316	-0.007097612
213	0x3e42b83f	0.19015597
214	0xbf41a1bd	-0.7563742
215	0x3ee0f466	0.4393646
216	0x3eafee2c	0.34361398
217	0xbfc7d2f3	-1.5611252
218	0xbe76e195	-0.2410949
219	0x3f1281fc	0.5722959
220	0x3f4f86da	0.8106514
221	0xbcbafc06	-0.022825252
222	0xbe33462c	-0.17507237
223	0x3f052c2a	0.52020514
224	0x3f2d0a9b	0.6759431
225	0xbf2a6198	-0.66555166
226	0x3f198b04	0.59977746
227	0x3f2a5ece	0.6655091
228	0xc00a6feb	-2.163081
229	0xc00edab6	-2.232099
230	0xbea3efab	-0.3201879
231	0xbcce3dea	-0.025176007
232	0x3cef93c7	0.02924527
233	0x3cd1b554	0.02559916
234	0xbf0ccfcf	-0.5500459
235	0x3f5138d6	0.8172735
236	0xbd3e3821	-0.046440247
237	0xbe6260cb	-0.22107236
238	0x3e73026c	0.23731393
239	0x3f712033	0.9418976
240	0xbf2afe60	-0.66794395
241	0xbfa26823	-1.268803
242	0xbea5a799	-0.3235443
243	0xbf824490	-1.0177174
244	0xbf421e73	-0.7582771
245	0x3f1c2aae	0.61002624
246	0x3f66f67f	0.90219873
247	0xbd76dcc4	-0.060269132
248	0xbf4958aa	-0.78650916
249	0xbe448149	-0.19189943
250	0xbf0bd664	-0.5462401
251	0xbec94b35	-0.3931519
252	0xbd927a79	-0.07152266
253	0xbf1ae819	-0.605104
254	0xbf1837a7	-0.5945992
255	0xbf1cbd18	-0.61226034

shared.0.bias f4 [128]
0	0xbd8cc865	-0.0687416
1	0xbda66e90	-0.08126557
2	0xbe2fb2c9	-0.17158045
3	0x3dbe709f	0.092988245
4	0x3e59112b	0.21197955
5	0x3e8ab814	0.27093565
6	0x3ea56b7f	0.32308576
7	0x3c0bae6f	0.008525475
8	0xbeeb3d9f	-0.4594545
9	0xbeb6bcf5	-0.35691038
10	0xbe1ef8c7	-0.15524589
11	0x3e7d66f0	0.24746299
12	0xbe93e9d1	-0.28889325
13	0x3ca2daa7	0.019879652
14	0x3e12189b	0.14267199
15	0x3ea7a144	0.32740223
16	0xbe8e3da3	-0.277814
17	0xbecaabcc	-0.39584196
18	0x3eadae4f	0.3392205
19	0x3de9357c	0.113871545
20	0x3e5febe4	0.21867329
21	0xbe8b7d8c	-0.27244222
22	0x3db01c4a	0.08599146
23	0x3f049232	0.51785576
24	0xbe8c6fba	-0.2742899
25	0x3e01467a	0.12624541
26	0x3e7773fb	0.24165337
27	0xbe46ca6c	-0.19413155
28	0x3e440dc1	0.19145872
29	0x3ec52d0f	0.3851094
30	0xbda585ee	-0.08082186
31	0xbee96d9c	-0.45591438
32	0xbe3e4f02	-0.18584827
33	0xbe6b746e	-0.22993633
34	0x3e01b27e	0.12665746
35	0x3c09a47d	0.0084010335
36	0xbe55e399	-0.20887603
37	0x3e40b533	0.18819122
38	0x3eabf90a	0.3358844
39	0x3eaebdbf	0.3412914
40	0x3ecab611	0.3959203
41	0x3e1455c3	0.1448584
42	0x3f0056ad	0.50132257
43	0xbe5917c0	-0.21200466
44	0x3e8b7e67	0.27244875
45	0x3e19c54d	0.1501667
46	0xbd164835	-0.036689956
47	0xbe90e0a3	-0.28296384
48	0xbe8abdc3	-0.27097902
49	0xbea770ca	-0.3270324
50	0xbebe5689	-0.37175396
51	0xbe956a90	-0.29182863
52	0xbe07dffd	-0.13269038
53	0x3f18c336	0.5967287
54	0x3e127c29	0.14305176
55	0xbe86b2c0	-0.2630825
56	0xbe731cc0	-0.23741436
57	0x3d72e042	0.0592959
58	0xbdf61682	-0.12016012
59	0x3d1b0727	0.037848618
60	0xbbdfea6d	-0.0068333657
61	0xbe36abbc	-0.17838949
62	0x3eaf432c	0.34230936
63	0x3aa921dc	0.0012903768
64	0xbb06bb11	-0.0020558278
65	0x3eff6551	0.49881986
66	0x3ecd59ed	0.4010767
67	0xbeb5600b	-0.35424837
68	0x3dae7229	0.08517868
69	0x3de4b64f	0.11167585
70	0x3e5e18e0	0.21689177
71	0x3c0b649a	0.008507872
72	0x3eb0f4b8	0.34561706
73	0x3e214d20	0.15752077
74	0x3ef0fc27	0.47067377
75	0xbf03f2a2	-0.51542103
76	0x3e560484	0.2090016
77	0x3d8b51fd	0.068027474
78	0x3e9180c6	0.2841856
79	0xbde4ea58	-0.1117751
80	0x3e3f8cd2	0.18706062
81	0x3e037508	0.12837613
82	0xbc801b16	-0.015637916
83	0xbe193b35	-0.14963992
84	0xbf0766ec	-0.5289142
85	0x3db4286a	0.08796771
86	0x3e269947	0.16269408
87	0xbe10d9ea	-0.14145628
88	0xbc9b723a	-0.018975366
89	0x3d4d964b	0.05019216
90	0x3edae4a6	0.4275257
91	0xbdf80be3	-0.12111642
92	0x3cf5ec63	0.030019945
93	0xbd9ca0dd	-0.0764787
94	0xbebd313b	-0.36951622
95	0x3ee50b42	0.44735152
96	0xbeffc85c	-0.4995755
97	0xbe8105af	-0.2519965
98	0xbcbfdbb9	-0.023420202
99	0xbd00ad4f	-0.03141528
100	0xbb67da07	-0.0035377757
101	0x3e40f27f	0.18842505
102	0x3d6c14c8	0.057637006
103	0xbd80c5a0	-0.06287694
104	0x3d845f3e	0.064634785
105	0xbeae5da2	-0.3405581
106	0xbd8337a5	-0.06407098
107	0xbec7a2ae	-0.38991302
108	0xbe143ea6	-0.14477023
109	0xbed95a45	-0.42451683
110	0x3e8c3a26	0.27388114
111	0xbe4eb7ae	-0.20187256
112	0x3dda6529	0.10663826
113	0xbd6ad786	-0.057334445
114	0x3c6fb3ff	0.014630317
115	0x3d3b97e7	0.045799162
116	0x3e18a999	0.14908446
117	0x3d3ea469	0.046543512
118	0x3e401c23	0.18760733
119	0x3f022a3c	0.50845695
120	0x3d8a71e6	0.06760006
121	0x3e29a441	0.16566564
122	0x3e8fa851	0.28058103
123	0x3cec8b8e	0.028875139
124	0x3dc9dfee	0.09857164
125	0x3df41a6e	0.119191036
126	0xbd8b479a	-0.06800766
127	0x3e2c5662	0.16829827

shared.2.weight f4 [128, 128]
0	0xbf079cf4	-0.52973866
1	0x3f1fc36a	0.62407553
2	0xbeadff8f	-0.33984038
3	0xbdd7ad76	-0.10531132
4	0x3e03b6a5	0.12862642
5	0xbf427c00	-0.7597046
6	0x3e4652e6	0.1936756
7	0x3f0bc248	0.54593325
8	0xbe9f0e02	-0.31065375
9	0xbefb782b	-0.49115118
10	0xbe1bfe8a	-0.15233818
11	0x3ea12f6d	0.31481495
12	0x3d5ac4a2	0.05341018
13	0xbda54da8	-0.080714524
14	0xbee00445	-0.43753257
15	0x3e5ac52f	0.21364282
16	0xbed254b3	-0.41080245
17	0xbf1b24e2	-0.60603154
18	0xbe5508e0	-0.20804167
19	0x3d8f2dad	0.06991134
20	0xbde4601e	-0.111511454
21	0x3dcaa455	0.09894625
22	0x3be227c4	0.006901713
23	0x3e7fe6c2	0.24990371
24	0x3ed9135f	0.4239759
25	0xbf51b2b7	-0.8191332
26	0x3f82fc7b	1.0233301
27	0xbf755531	-0.95833117
28	0x3e7b7a9c	0.2455849
29	0x3f2488e6	0.6427139
30	0x3f24d96e	0.6439427
31	0xbdc41a94	-0.09575382
32	0xbeb0421d	-0.3442544
33	0x3ece37a3	0.40276822
34	0x3f75c7de	0.960081
35	0xbf2f8de3	-0.68575877
36	0xbf48a509	-0.78376824
37	0x3f056be3	0.5211775
38	0x3e051eef	0.13000081
39	0x3f0d9d8d	0.5531853
40	0x3f4c0021	0.79687697
41	0xbf17c9b4	-0.5929215
42	0xbf594027	-0.84863514
43	0xbe7706bd	-0.24123664
44	0x3e0ec183	0.13941006
45	0x3f0338ad	0.51258355
46	0x3eafff93	0.34374675
47	0xbee8d4af	-0.45474765
48	0xbca5dad6	-0.02024595
49	0xbe29344d	-0.16523857
50	0xbe6fe172	-0.23425844
51	0xbd1da6f0	-0.038489282
52	0xbe9a96e9	-0.3019326
53	0x3e3bc6aa	0.18337503
54	0x3e8841ba	0.26612645
55	0x3ef15c3d	0.47140685
56	0xbe0b69cb	-0.13614576
57	0x3f20af57	0.6276755
58	0x3ee90b0a	0.45516235
59	0x3c766ce0	0.015040606
60	0xbea59832	-0.32342678
61	0xbef71f6a	-0.48266155
62	0xbef5c610	-0.48002672
63	0xbe307a47	-0.17234145
64	0x3f3a4c55	0.72772723
65	0x3f34db48	0.70647097
66	0xbe1f01e3	-0.15528063
67	0xbdea3099	-0.114350505
68	0xbf1f573c	-0.62242484
69	0x3df9b0fc	0.1219196
70	0x3f252b0a	0.645188
71	0x3f1bfec4	0.60935616
72	0xbb488da7	-0.003060201
73	0xbe834e64	-0.25645745
74	0x3f39e54b	0.726155
75	0xbf258631	-0.64657885
76	0xbdb2767d	-0.08714006
77	0x3ef11c72	0.47092015
78	0x3e7c97ff	0.24667357
79	0xbe4d19f7	-0.20029436
80	0xbec15c94	-0.37765944
81	0x3f53a932	0.82680047
82	0xbe460299	-0.19336928
83	0xbbeb3aaf	-0.0071786265
84	0xbe60ee5d	-0.21965928
85	0x3df4374f	0.11924612
86	0xbcfec425	-0.031099388
87	0x3ebf0844	0.37310994
88	0xbe9d15ad	-0.306806
89	0x3eb062f4	0.34450495
90	0x3e96ead8	0.29476047
91	0x3ea6dbbd	0.32589522
92	0xbe4550e0	-0.19269133
93	0xbf5ba3d8	-0.8579688
94	0x3aad1025	0.0013203664
95	0xbd83a3dc	-0.06427738
96	0xbf61dbb1	-0.8822585
97	0xbf44cbbe	-0.76873386
98	0xbd85af10	-0.06527531
99	0xbe040bb4	-0.1289509
100	0xbec29478	-0.38003898
101	0x3e3279df	0.17429303
102	0x3f0e4428	0.5557275
103	0xbe922a07	-0.2854769
104	0x3eff3bbd	0.49850264
105	0xbef4a432	-0.4778152
106	0x3ee945ca	0.45561057
107	0x3ef62ce9	0.4808114
108	0xbe771bfd	-0.2413177
109	0xbe9702ba	-0.29494268
110	0x3e606035	0.219117
111	0xbee9afb1	-0.45641854
112	0x3f15ae87	0.5846943
113	0xbf1e1425	-0.6174949
114	0x3d176642	0.036962755
115	0xbf2d438f	-0.6768121
116	0x3e1e0b86	0.15434083
117	0x3f79d564	0.97591233
118	0x3f115866	0.5677551
119	0x3e96014d	0.29297867
120	0xbf10e0ea	-0.5659319
121	0xbea8f39a	-0.32998353
122	0x3f56ade2	0.83859074
123	0xbedc6f53	-0.43053684
124	0xbe3cd75c	-0.18441528
125	0xbd884d28	-0.066553414
126	0xbed34d3c	-0.41269863
127	0x3e3f3017	0.18670689
128	0xbd576a41	-0.052591566
129	0x3970b8f2	0.00022957081
130	0x3eb47ca0	0.3525133
131	0xbf2517f7	-0.6448969
132	0xbe0436de	-0.12911555
133	0x3f0e810f	0.5566568
134	0x3f6fb835	0.9364045
135	0x3c3bfb2d	0.011473459
136	0x3ecb6337	0.39724132
137	0x3e9a3a8c	0.30122793
138	0x3ef378dc	0.47553146
139	0x3e27164a	0.16317096
140	0xbf1bb520	-0.6082325
141	0xbdefaefe	-0.11703299
142	0x3f517cc3	0.81830996
143	0xbed1d5b8	-0.40983367
144	0xbe28c131	-0.16479947
145	0x3e1e7619	0.15474738
146	0x3ef87704	0.48528302
147	0xbf1ad0c2	-0.6047479
148	0x3e1fb139	0.15594949
149	0x3f4cb148	0.7995801
150	0xbdca22ca	-0.09869917
151	0x3e381f94	0.17980796
152	0x3ecbf8f8	0.39838386
153	0xbd071eee	-0.03298848
154	0x3d41fafc	0.047358498
155	0x3dcfd6fc	0.10148427
156	0xbcee0579	-0.029055344
157	0x3f0845d5	0.53231555
158	0x3f3d8fb5	0.74047405
159	0x3edc68de	0.43048757
160	0xbf998600	-1.1994019
161	0xbe8e94a8	-0.2784779
162	0x3e3bf1f0	0.1835401
163	0x3f0c38b2	0.5477401
164	0xbf0050d4	-0.50123334
165	0x3f4a99ef	0.79141134
166	0x3f315f53	0.6928608
167	0x3ec7c4bf	0.39017293
168	0xbf44e7d4	-0.7691624
169	0x3ed79df3	0.42112693
170	0x3f12d20c	0.57351756
171	0xbec9ec73	-0.3943821
172	0x3c862f24	0.0163799
173	0xbf0185b6	-0.5059465
174	0xbf3a324a	-0.72732985
175	0xbf1f1cc5	-0.62153274
176	0x3e98c7fc	0.29840076
177	0x3f6ae0fb	0.9174954
178	0x3ea8f0a7	0.32996103
179	0x3eef5340	0.46743202
180	0xbf4c297c	-0.797508
181	0x3e9fb7cf	0.31194922
182	0x3e8a2fe0	0.2698965
183	0x3f8bbcd5	1.0917002
184	0xbf258200	-0.6465149
185	0x3ee7be7d	0.4526252
186	0x3f0d34cd	0.5515869
187	0xbe0ab570	-0.13545775
188	0x3e22fed6	0.15917525
189	0x3e95065d	0.29106417
190	0xbeb86b02	-0.3601914
191	0xbdb09f1d	-0.086240984
192	0x3d3dcbf9	0.0463371
193	0xbf243a71	-0.64151675
194	0xbe1e4985	-0.15457733
195	0xbf293244	-0.66092324
196	0x3f04928b	0.51786107
197	0x3e7c05c6	0.24611577
198	0x3ed6c5d1	0.41947797
199	0xbf721213	-0.9455883
200	0xbe54dd12	-0.20787457
201	0x3e135ab9	0.14390077
202	0x3f23fff2	0.64062417
203	0x3ed9257c	0.4241141
204	0xbf27e3bd	-0.65581876
205	0xbd4ce9c3	-0.05002762
206	0x3e461abb	0.19346134
207	0x3d4b58bc	0.04964517
208	0xbf0352e7	-0.51298374
209	0x3e849418	0.25894237
210	0x3c8e0de7	0.017340614
211	0xbe2b38ec	-0.16720933
212	0x3e94c34d	0.29055253
213	0x3cf1351e	0.029444274
214	0x3e617479	0.22017087
215	0x3c922c00	0.017843246
216	0x3d86f19d	0.06589053
217	0x3e19acd3	0.15007333
218	0xbf374cef	-0.71601766
219	0xbd882186	-0.06647019
220	0xbec81900	-0.39081573
221	0xbeef2ada	-0.4671238
222	0xbf5f7ed4	-0.873029
223	0xbe05c3fe	-0.13063046
224	0x3f6f11b4	0.9338639
225	0x3ea219e2	0.31660372
226	0xbf186c3c	-0.5954015
227	0xbe2f9e43	-0.17150216
228	0xbefbb9c5	-0.49165168
229	0xbde11ed5	-0.10992209
230	0x3eb67fd9	0.35644415
231	0x3f0c9f68	0.54930735
232	0xbf386a63	-0.72037333
233	0xbf378575	-0.71688014
234	0xbe0cc7a9	-0.1374804
235	0xbf1309a7	-0.57436603
236	0xbe622477	-0.22084223
237	0x3f7e1658	0.99252844
238	0xbdd01b24	-0.10161427
239	0x3e84c34e	0.25930256
240	0x3f68c3ae	0.90923584
241	0xbf3a481e	-0.7276629
242	0x3eed0324	0.4629146
243	0xbd8ebfc7	-0.069701724
244	0xbf054739	-0.520618
245	0x3cc8f282	0.0245297
246	0xbde6aacc	-0.11263046
247	0x3cb0a330	0.021562189
248	0xbdf72100	-0.12066841
249	0xbe3538da	-0.17697468
250	0x3ebfa8a9	0.37433365
251	0x3f191e4b	0.5981185
252	0x3e6b1a22	0.22959188
253	0x3f43131a	0.7620102
254	0xbdaa92e9	-0.08328802
255	0x3f3512ce	0.7073182

shared.2.bias f4 [128]
0	0x3ef9c124	0.48780167
1	0xbe43bcb0	-0.19114947
2	0x3ee16ef8	0.44029975
3	0xbe73666f	-0.23769544
4	0xbf3a21ab	-0.72707623
5	0x3d533313	0.05156238
6	0xbed682b1	-0.41896585
7	0xbeef46fc	-0.46733844
8	0xbf2c2fb3	-0.67260283
9	0xbe73c626	-0.23806056
10	0x3eb90d64	0.3614303
11	0x3e29f0f4	0.16595823
12	0x3d4d0bf7	0.05006024
13	0x3e35e5c3	0.17763428
14	0xbeb8624b	-0.36012492
15	0xbe91bc83	-0.28464136
16	0xbef0e116	-0.47046727
17	0xbf4cbd24	-0.79976106
18	0x3eaeeca8	0.3416493
19	0x3e41fbbb	0.18943684
20	0x3efd4fce	0.4947495
21	0x3f4e4f95	0.8059018
22	0xbe6c11bd	-0.23053642
23	0xbeecbfd3	-0.462401
24	0xbf346a7d	-0.7047499
25	0x3eaf44db	0.3423222
26	0xbed90490	-0.42386293
27	0xbf274ef4	-0.6535485
28	0xbe93b5c9	-0.2884963
29	0xbefad7a4	-0.48992646
30	0xbdbee0c7	-0.093202166
31	0xbec3ea59	-0.3826473
32	0x3e87d777	0.26531574
33	0xbf0a4395	-0.5400937
34	0x3d4bfdb1	0.049802486
35	0x3e630a61	0.22171928
36	0xbecbf533	-0.3983551
37	0xbf1938c6	-0.59852254
38	0xbee489a8	-0.44636273
39	0xbf175d63	-0.5912687
40	0x3f0b95cd	0.5452545
41	0xbe11bb52	-0.14231613
42	0x3f6caeb0	0.9245405
43	0xbe15b218	-0.14618719
44	0xbf1ad284	-0.6047747
45	0x3d3bdde0	0.045865893
46	0x3eaf5bf4	0.34249842
47	0xbecd65f0	-0.40116835
48	0xbe613734	-0.21993715
49	0x3de2f358	0.110815704
50	0xbee7bf78	-0.45263267
51	0xbf239801	-0.63903815
52	0x3e6b6fc4	0.22991854
53	0xbf0a09ad	-0.53921014
54	0x3e92c2db	0.28664288
55	0xbead0165	-0.33790126
56	0x3da3c8cc	0.07997283
57	0x3ef0c37b	0.4702414
58	0x3eeafea4	0.458974
59	0x3f3f22e3	0.7466261
60	0xbabbdfeb	-0.00143337
61	0xbed93142	-0.42420393
62	0x3ec971ad	0.3934454
63	0x3e3178a9	0.17331184
64	0xbd86a2c7	-0.06574016
65	0xbeeecb84	-0.46639645
66	0xbd895fbd	-0.06707714
67	0xbdc2b70a	-0.09507568
68	0xbe04b285	-0.12958725
69	0xbe31a560	-0.17348242
70	0x3ef0f6ca	0.47063285
71	0x3ef22b8a	0.47298843
72	0x3eb0a183	0.34498224
73	0xbf087972	-0.5331031
74	0x3ccbfe7b	0.02490162
75	0xbeda0b46	-0.42586726
76	0x3e8a8edb	0.27062115
77	0xbf8540a9	-1.0410358
78	0xbd931a3f	-0.071827404
79	0x3e7a106d	0.24420328
80	0x3e85fcfc	0.26169574
81	0xbe7df5a0	-0.2480073
82	0xbee11b05	-0.43965927
83	0x3ee41b44	0.44552052
84	0xbead4a1e	-0.3384561
85	0xbe90f7e3	-0.28314123
86	0x3edb020d	0.42775002
87	0x3e4878f2	0.19577387
88	0xbf362a72	-0.71158516
89	0x3e74b5e4	0.23897511
90	0xbed63d93	-0.41843852
91	0x3ebb7edf	0.36620232
92	0x3f206c3b	0.62665147
93	0xbe49d741	-0.19711019
94	0x3ecf8f4d	0.40539017
95	0xbcc92f03	-0.02455855
96	0x3e0ef18e	0.13959333
97	0xbe8d1935	-0.27558294
98	0xbe9910e1	-0.2989569
99	0xbee16d0e	-0.44028515
100	0xbec7f997	-0.3905761
101	0xbebd6a56	-0.3699519
102	0xbf06d9ea	-0.5267626
103	0x3c8425dd	0.016131336
104	0xbeafb7f7	-0.34320042
105	0xbe6bac6f	-0.23014997
106	0x3c84293b	0.016132941
107	0x3e10452e	0.1408889
108	0x3e174934	0.14774019
109	0x3e3ebc45	0.18626507
110	0x3f097dbe	0.5370749
111	0xbf0611d8	-0.5237098
112	0x3f0d5148	0.5520215
113	0x3f240fe9	0.64086777
114	0xbed9eac6	-0.4256193
115	0x3dd3852c	0.10328135
116	0xbd3136e4	-0.04326524
117	0xbea7ab09	-0.32747677
118	0xbf1078cb	-0.56434315
119	0x3ea08ba7	0.31356546
120	0xbf227351	-0.6345721
121	0x3e92776a	0.2860673
122	0x3d68bb3b	0.056819182
123	0xbf01d0c5	-0.5070918
124	0xbe6525b1	-0.2237766
125	0x3df4369b	0.11924478
126	0x3f0583b6	0.521541
127	0x3ef1cd11	0.47226766

actor_mean.weight f4 [5, 128]
0	0xbe87ee9a	-0.26549226
1	0xbf2d0683	-0.6758806
2	0x4003ef5a	2.0614839
3	0xbf9a6ed2	-1.206507
4	0x3f546914	0.82972836
5	0x3d9f743d	0.077858426
6	0xbf265e62	-0.64987767
7	0x40245544	2.5677042
8	0x3f97e308	1.186616
9	0xbe59cdff	-0.21269988
10	0xbf1e0416	-0.61724985
11	0xbf9ed572	-1.2408888
12	0xbf5d36cf	-0.86411756
13	0x3e2cca70	0.16874099
14	0xbe4edf0c	-0.20202273
15	0xbf8a77f3	-1.0817856
16	0xbff1412e	-1.8848016
17	0x3ed40a6b	0.41414198
18	0xbf6c82ce	-0.9238709
19	0xbfdad3df	-1.7095908
20	0xbf1584f0	-0.5840597
21	0xbeeb0569	-0.45902565
22	0xbe1c1d6b	-0.15245597
23	0xbd92ef8d	-0.07174597
24	0xbe8d0679	-0.27544
25	0xbe273cc2	-0.16331771
26	0xbfcac10a	-1.5840161
27	0x3ed1e07c	0.4099158
28	0x3f8f8b1f	1.1214331
29	0x3f8a242d	1.079229
30	0xbfa55e24	-1.2919354
31	0x3fbd0815	1.4768091
32	0x3fa17154	1.261271
33	0xbf57c877	-0.8429026
34	0x3ff6430b	1.923921
35	0xbf595f0c	-0.84910655
36	0x3e7155a1	0.23567821
37	0xbf78b8d3	-0.9715702
38	0xbe3775bd	-0.17916007
39	0xbecbdf3e	-0.39818758
40	0x3fb68522	1.4259379
41	0x3f3082e0	0.689497
42	0xbe24aa6b	-0.16080634
43	0x3f690613	0.91024894
44	0x3f6f7d95	0.93551
45	0x3db648a6	0.08900575
46	0x3f61e7be	0.88244236
47	0x3f9d5c3f	1.2293776
48	0x3f1d8049	0.6152387
49	0x3fb8d3e8	1.4439669
50	0x3f0db383	0.5535204
51	0xbfcf9a23	-1.6218914
52	0xbdeea656	-0.1165282
53	0xbfb546c0	-1.4162216
54	0xbe1bea7f	-0.15226172
55	0xbfe260ae	-1.7685754
56	0x401188ae	2.2739673
57	0x3f176629	0.5914026
58	0xbcf2f3f9	-0.02965735
59	0x3f13303d	0.5749548
60	0x3eacdf51	0.33764127
61	0x3fc5c3eb	1.5450414
62	0xbf2b6fb7	-0.6696734
63	0x3d8d0ae3	0.06886842
64	0xbda425c9	-0.080150194
65	0x3ecfa350	0.40554285
66	0x4007351e	2.112617
67	0xbeee6fb0	-0.46569586
68	0xbf389565	-0.7210296
69	0x3f23ef75	0.6403726
70	0x3e41314d	0.18866463
71	0xc029a776	-2.650846
72	0xbf2cc449	-0.6748701
73	0x3f7080c8	0.93946505
74	0xbfa248a3	-1.2678417
75	0x3f1b6063	0.6069395
76	0xbed62733	-0.41826782
77	0xbe444d5a	-0.19170132
78	0x3f254d52	0.64571106
79	0x4002eb6b	2.0456188
80	0xbf542603	-0.828705
81	0x401681f8	2.3516827
82	0x3f0c37e4	0.5477278
83	0xbf0cd387	-0.55010265
84	0x3f1eb927	0.6200127
85	0x4012466d	2.2855484
86	0xbebc5be6	-0.36788863
87	0xc02e33d9	-2.7219145
88	0xbf9e2dc9	-1.2357723
89	0xbfb622af	-1.4229335
90	0xbf5f2ec3	-0.8718073
91	0xbfb9fa23	-1.4529461
92	0xbd963c99	-0.07335777
93	0xbfdd8858	-1.7307234
94	0x3eef2b5d	0.4671277
95	0xbf2f5ae8	-0.68498087
96	0x3fa2e586	1.2726295
97	0x3f2d26bc	0.6763723
98	0xbead9164	-0.33899987
99	0x3ffa6221	1.9561197
100	0x4029de13	2.6541793
101	0x3e9ad3e1	0.30239776
102	0x3d1dca60	0.038523078
103	0xbf50406e	-0.8134831
104	0xbe5889f4	-0.21146375
105	0x3fa8bab0	1.3181973
106	0x3f260d8c	0.6486442
107	0xbe9a5e44	-0.30150044
108	0x3fb9c15b	1.4512132
109	0xbe4f0ecb	-0.20220487
110	0xbf901d05	-1.1258856
111	0x3ec444d4	0.38333762
112	0xbe0ad707	-0.13558589
113	0x3ec2d751	0.38054898
114	0x3f8567d1	1.0422307
115	0x3f8e95a1	1.1139413
116	0x3ee7cf62	0.45275408
117	0x3f87ab4b	1.059915
118	0xbf0ab62c	-0.5418422
119	0xbe838278	-0.25685477
120	0xbd7ef0af	-0.062241253
121	0xbfeb73f5	-1.8394762
122	0xbf7fa7df	-0.99865526
123	0xbf2b4a36	-0.6691011
124	0x40363a99	2.8473265
125	0x3e963396	0.29336232
126	0xbfa14c40	-1.2601395
127	0x3f2a38c5	0.66492873
128	0x3f8f0d1c	1.1175876
129	0x400a522d	2.1612656
130	0x3e2301ec	0.15918702
131	0xbf08818f	-0.5332269
132	0x3fcbf425	1.5933882
133	0xbeabe129	-0.3357022
134	0xbf25f4bd	-0.64826566
135	0xc04dd598	-3.2161617
136	0x3e64c548	0.22340882
137	0xbfe9dfa7	-1.8271378
138	0x3e8cfadd	0.27535143
139	0xbea5405e	-0.3227567
140	0x3e58979b	0.21151583
141	0xbf5d22a6	-0.86380994
142	0xbf890d9f	-1.0707282
143	0x3f94503e	1.1586988
144	0xbe78397a	-0.24240676
145	0x3f06ba7f	0.5262832
146	0x3e1f34a0	0.15547419
147	0x3fdea383	1.739365
148	0xbe8770b4	-0.26453173
149	0x3f92efe6	1.1479461
150	0xbeb534fe	-0.35391992
151	0xbed1e2ee	-0.40993446
152	0x3ee0e6f5	0.43926206
153	0xbe67af2d	-0.22625418
154	0xbfa0502e	-1.2524469
155	0xbeb624b6	-0.35574883
156	0x3e9afa26	0.30268973
157	0xbd9ccf31	-0.07656706
158	0x3ebe845b	0.37210354
159	0xbf5f3770	-0.87193966
160	0xbfb03f5c	-1.3769336
161	0x3f51ba9e	0.8192538
162	0x401dd833	2.4663208
163	0xbeef2a1d	-0.46711817
164	0x3e865d61	0.26243117
165	0x3ed26b83	0.4109765
166	0xbfaaeed5	-1.3354136
167	0xbf3530e3	-0.7077772
168	0xbf8ebe7f	-1.1151885
169	0x3dcf8752	0.10133232
170	0x3ed4f90b	0.41596255
171	0xbf86cf93	-1.0532097
172	0xbd91b8f2	-0.07115354
173	0xbf623449	-0.8836103
174	0x3e1879a0	0.14890146
175	0xbf071401	-0.527649
176	0xc00d23e8	-2.2053165
177	0xbe9ff37c	-0.3124045
178	0xbe6143fb	-0.21998589
179	0x3f163e9c	0.58689284
180	0x3f8c5fff	1.0966796
181	0x3f331ceb	0.69966
182	0x3e4467ed	0.1918027
183	0x3fc7706b	1.5581182
184	0xbf9d275b	-1.2277635
185	0xbf28c859	-0.65930706
186	0x3f10ed3c	0.5661199
187	0xbf64d163	-0.89382
188	0xbfa56ef7	-1.2924489
189	0x3f9e4cf2	1.2367232
190	0x3c9a0441	0.018800857
191	0xbf3769d6	-0.7164587
192	0x3e4ecf2c	0.20196217
193	0x3e9a373f	0.30120274
194	0x3d1898a4	0.037254944
195	0x3fb3aef0	1.4037762
196	0x3f388a49	0.72086006
197	0x3f289e01	0.65866095
198	0xbf63619c	-0.88820815
199	0x3f6bf1fe	0.92166126
200	0x3f8dfa3c	1.109199
201	0xbf313fcd	-0.6923798
202	0xbf9c52cf	-1.2212771
203	0xbf53f599	-0.8279663
204	0xbe86884f	-0.2627587
205	0x3e06713e	0.13129136
206	0xbf701db1	-0.93795305
207	0xbf12d8d3	-0.573621
208	0x3f5eeb35	0.8707765
209	0x3f306adb	0.6891305
210	0xbef0a8c8	-0.4700377
211	0xbf8968fa	-1.0735161
212	0x3f3735fe	0.7156676
213	0x3f453aac	0.7704265
214	0x3e15ffde	0.14648387
215	0xbfbec65b	-1.4904283
216	0xbf215ab3	-0.6302902
217	0x3f7c892c	0.9864681
218	0xbebe1607	-0.3712618
219	0x400de247	2.2169359
220	0xbfa53ffb	-1.291015
221	0x3fea3d6b	1.8299993
222	0x3f63baa9	0.88956696
223	0xbf711455	-0.9417165
224	0x3c9e7e81	0.019347431
225	0x3f5ef2f1	0.8708945
226	0x3f5e7b42	0.86906826
227	0xbbccb2b2	-0.006246888
228	0x3eef6817	0.46759102
229	0xbfe70eac	-1.8051353
230	0xbd99a68f	-0.07502472
231	0xc002f2be	-2.0460658
232	0x3f5e98e1	0.86952025
233	0x4003eb14	2.061223
234	0x40086465	2.1311276
235	0xbe995f65	-0.29955593
236	0x3f8d7558	1.1051435
237	0x3f49f0f1	0.7888327
238	0x3ecbd730	0.39812613
239	0xbf3e8ca5	-0.74433357
240	0xbeb2cc25	-0.34921375
241	0xbeacd352	-0.33754975
242	0x3e889188	0.26673532
243	0xbf42273b	-0.7584111
244	0xbfb45544	-1.4088521
245	0x3e2a4844	0.1662913
246	0xbec457b6	-0.38348168
247	0xbfe0bd7d	-1.7557827
248	0x3f63bdae	0.88961303
249	0x3ec3ca6b	0.3824037
250	0xbfb8e577	-1.4445027
251	0x3deee028	0.11663848
252	0xbf63a6a1	-0.8892613
253	0xc02b56d3	-2.6771743
254	0xbfe0a9ef	-1.755186
255	0x3d603e2c	0.05474679

actor_mean.bias f4 [5]
0	0xbe869f82	-0.2629357
1	0xbdd5e17d	-0.10443399
2	0xbed94b5f	-0.42440316
3	0xbf22bbfe	-0.63568103
4	0x3d39c495	0.04535349

critic.weight f4 [1, 128]
0	0x3f816b5d	1.011089
1	0xbff46205	-1.9092413
2	0x3fb00ae2	1.3753321
3	0xbfcbd44e	-1.5924165
4	0xbf9916dd	-1.1960102
5	0x3fdcf0d9	1.7261001
6	0xbfaa1602	-1.3287966
7	0xbf9cefe2	-1.2260706
8	0xbfa99921	-1.3249856
9	0xbf54861c	-0.83017135
10	0x3fdbb870	1.7165661
11	0x3ff24711	1.8927938
12	0xbff32a46	-1.8997276
13	0x3fa08ea7	1.2543534
14	0xc0037c5d	-2.0544655
15	0xbf18f281	-0.5974503
16	0xc004f89e	-2.0776744
17	0xbfa2158d	-1.2662827
18	0x3f5aab27	0.8541741
19	0x3f3f88d8	0.7481818
20	0xbfc3af92	-1.5287955
21	0x3ec658d8	0.38739657
22	0xbf61a39f	-0.8814029
23	0xbf895d75	-1.0731646
24	0xbfa8823e	-1.3164747
25	0x3fd50945	1.6643454
26	0xbfd256dc	-1.6432757
27	0xbfeb0cd0	-1.8363285
28	0x3ffebbe0	1.9901085
29	0xbf63b4e0	-0.8894787
30	0xbfb88a41	-1.4417192
31	0xbf80ff64	-1.0077939
32	0x3f47c39a	0.7803284
33	0xbf9362e6	-1.1514556
34	0xbff110a6	-1.8833206
35	0xbfe882e6	-1.8164947
36	0xbf667484	-0.9002154
37	0xbf16edfc	-0.58956885
38	0xbf225957	-0.6341757
39	0xbf81a140	-1.0127335
40	0x3fe878e4	1.8161893
41	0xbfaadbee	-1.3348367
42	0x3faa0e8d	1.328569
43	0xbfa5fc50	-1.2967625
44	0xbf8f3595	-1.1188227
45	0x3f1cdbb7	0.6127276
46	0x3fb00ff6	1.3754871
47	0xbf861bf5	-1.0477282
48	0xbf6d1daa	-0.9262339
49	0x400b1a21	2.1734698
50	0xbf5e278d	-0.867791
51	0xbf8fa453	-1.1222023
52	0x3fc118df	1.5085715
53	0xbfe7897e	-1.8088834
54	0x3f0f03dd	0.5586527
55	0xbf63a714	-0.88926816
56	0x3f9765f4	1.1827989
57	0x3f9803f2	1.1876204
58	0x3f829333	1.0201172
59	0x3f90193c	1.1257701
60	0xbfa48c6e	-1.2855356
61	0x40130da0	2.2977066
62	0x3f87aefb	1.0600275
63	0xbf1125a9	-0.5669809
64	0xbf2ac953	-0.66713446
65	0xbf54ce38	-0.83127165
66	0x3fee4807	1.8615731
67	0xbfb79385	-1.4341894
68	0xbf58bedf	-0.84666246
69	0xbf5de448	-0.86676455
70	0x3f9ee187	1.2412575
71	0x3fc4840d	1.5352799
72	0x3f76d8dd	0.9642466
73	0xbfa217d7	-1.2663525
74	0xbfdbcd7c	-1.7172084
75	0xbf873e4d	-1.0565888
76	0x3fef2363	1.8682674
77	0xc00fefa6	-2.249002
78	0x3f86c61b	1.0529207
79	0x3f78b09f	0.971445
80	0x3fc1adb9	1.5131141
81	0xbfbecb90	-1.4905872
82	0xbf6c2573	-0.9224464
83	0x3fa8b65c	1.3180652
84	0xbfb6e4e6	-1.4288604
85	0xbfccfdaa	-1.6014912
86	0x3f8a8a89	1.0823528
87	0x3fbbbe3b	1.4667429
88	0xbfa6ea2d	-1.3040215
89	0x3f81593a	1.0105355
90	0xbfd6d162	-1.6782649
91	0x3f278f42	0.6545297
92	0x3fcf21cb	1.6182188
93	0xbf96d702	-1.1784365
94	0x3ffe8614	1.9884667
95	0x3ffcda58	1.9754133
96	0x3f2cf4c0	0.6756096
97	0xbf5789d5	-0.8419469
98	0xbfda5344	-1.7056661
99	0x400ba80c	2.1821318
100	0xbfbe35ca	-1.4860165
101	0xbf6a0b58	-0.9142356
102	0xbf615cc6	-0.88032186
103	0x3fb947da	1.4475052
104	0xbf9c5aa1	-1.2215158
105	0xbfbf11f7	-1.4927357
106	0x3fdd4f8f	1.7289904
107	0x3f94e4f8	1.1632376
108	0x401050f6	2.2549415
109	0x3fce4e1a	1.6117585
110	0x3fd1efba	1.6401284
111	0xbfd6cc53	-1.6781105
112	0x3faf8a5d	1.37141
113	0x3fc5dae6	1.5457428
114	0xbfae07fb	-1.3596185
115	0x3fb3b101	1.4038392
116	0xbfd83bb8	-1.6893225
117	0x3f84e1f4	1.0381455
118	0xbf2a6a2b	-0.6656825
119	0x3fa55521	1.2916604
120	0xbfbd0336	-1.4766605
121	0x3fb52b99	1.415393
122	0xbff416d6	-1.9069469
123	0xbf675a18	-0.9037185
124	0x3fa37105	1.2768866
125	0x40126a30	2.2877312
126	0x3f982e19	1.1889068
127	0x3fb7a261	1.4346429

exp_avg f4 [5]
0	0xbb8abc3a	-0.004233864
1	0x3a9add71	0.0011815262
2	0xb9da77f1	-0.00041669564
3	0xbb0d2195	-0.002153491
4	0x3a74d701	0.00093398994

exp_avg_sq f4 [5]
0	0x371bbaf4	9.282248e-06
1	0x37052cda	7.937861e-06
2	0x370748c2	8.063567e-06
3	0x37081487	8.111011e-06
4	0x36f8bb2c	7.4127656e-06

exp_avg f4 [128, 20]
0	0xba003bfa	-0.00048917497
1	0xbbcb1e36	-0.00619867
2	0xbb897490	-0.0041948035
3	0x3ab8042d	0.001403933
4	0x3b606cb5	0.0034244482
5	0x3a0af976	0.0005301455
6	0x3a2687a6	0.00063526107
7	0x3a8ed931	0.0010898468
8	0xba84b8c6	-0.0010125868
9	0x39524f1f	0.00020056636
10	0x3aa37e3c	0.0012473534
11	0x3ac7bca0	0.001523871
12	0x3a258f89	0.0006315639
13	0xb893e6dd	-7.052508e-05
14	0x3a789dbf	0.0009483955
15	0xba003bfa	-0.00048917497
16	0xbbcb1e36	-0.00619867
17	0xbb897490	-0.0041948035
18	0x3ab8042d	0.001403933
19	0x3b606cb5	0.0034244482
20	0x3ad3354b	0.0016113905
21	0x3b70137e	0.0036632712
22	0xbb083bcb	-0.0020787593
23	0x3b1cd16b	0.0023928534
24	0x3b578f74	0.0032891901
25	0xbaac5222	-0.0013147036
26	0xbac700c9	-0.0015182729
27	0xba3848e6	-0.00070299057
28	0x3b02d651	0.0019964168
29	0x39dfbc5c	0.00042674213
30	0xbadd8407	-0.0016900309
31	0xbb0897a5	-0.002084234
32	0xba8e4dc7	-0.001085692
33	0xb9274f0e	-0.00015955811
34	0xba945499	-0.0011316716
35	0x3ad3354b	0.0016113905
36	0x3b70137e	0.0036632712
37	0xbb083bcb	-0.0020787593
38	0x3b1cd16b	0.0023928534
39	0x3b578f74	0.0032891901
40	0x3ba4b39c	0.005026294
41	0xbb768f1e	-0.0037621926
42	0xb9db8517	-0.00041870095
43	0x3b959ecd	0.0045660497
44	0xba4d0aaf	-0.00078217214
45	0x3a8d06ae	0.0010759437
46	0x3b1755ea	0.002309198
47	0x3acc1afa	0.0015572004
48	0xbace8c59	-0.001575838
49	0x3a31b6eb	0.0006779271
50	0xbaf6b821	-0.0018823185
51	0xba7b8477	-0.0009594629
52	0xbb126c7b	-0.0022342491
53	0xbb1a7670	-0.002356913
54	0xbae7ccdf	-0.0017684958
55	0x3ba4b39c	0.005026294
56	0xbb768f1e	-0.0037621926
57	0xb9db8517	-0.00041870095
58	0x3b959ecd	0.0045660497
59	0xba4d0aaf	-0.00078217214
60	0x3abe2320	0.0014506318
61	0xbb8e08c9	-0.0043345434
62	0x3c247166	0.010036802
63	0xbb48ec05	-0.0030658257
64	0xbad5b60a	-0.0016304862
65	0xbaf4d021	-0.001867775
66	0xbb081f6a	-0.0020770677
67	0x39fe678a	0.00048523798
68	0x3aa085cd	0.0012246907
69	0x3877cd08	5.908034e-05
70	0xbb9d0deb	-0.004792919
71	0xbba2e324	-0.004970925
72	0xbb90e145	-0.0044213855
73	0xbb77c17b	-0.0037804532
74	0xbb44cb20	-0.0030028298
75	0x3abe2320	0.0014506318
76	0xbb8e08c9	-0.0043345434
77	0x3c247166	0.010036802
78	0xbb48ec05	-0.0030658257
79	0xbad5b60a	-0.0016304862
80	0x3b204411	0.0024454633
81	0x3bcbcca2	0.0062194625
82	0xbb8d41b1	-0.0043108095
83	0xbb82632d	-0.003979108
84	0x3be6e71f	0.0070465948
85	0xbaba96e8	-0.0014235647
86	0xbb3c1c6c	-0.0028703464
87	0xba51b702	-0.00079999876
88	0x3b07132e	0.0020610797
89	0x379e9989	1.8906563e-05
90	0xbb021a1c	-0.0019851988
91	0xbb3e8a84	-0.002907426
92	0xbacd8a09	-0.0015681396
93	0xba1f43c8	-0.0006075469
94	0xba9cbf5f	-0.0011958888
95	0x3b204411	0.0024454633
96	0x3bcbcca2	0.0062194625
97	0xbb8d41b1	-0.0043108095
98	0xbb82632d	-0.003979108
99	0x3be6e71f	0.0070465948
100	0x3bf79bf9	0.007556435
101	0x3ac38459	0.0014916762
102	0x3b88b711	0.004172214
103	0xbab14096	-0.0013523276
104	0xba2b5d86	-0.00065370684
105	0xb783464e	-1.5649155e-05
106	0x3b06f8fb	0.0020595181
107	0x3a4c11cd	0.0007784635
108	0xba94d7cf	-0.001135582
109	0x3a76b693	0.0009411361
110	0xbb953844	-0.0045538265
111	0xbb825478	-0.0039773546
112	0xbb9865a5	-0.004650789
113	0xbb95000a	-0.004547124
114	0xbb5eae99	-0.003397858
115	0x3bf79bf9	0.007556435
116	0x3ac38459	0.0014916762
117	0x3b88b711	0.004172214
118	0xbab14096	-0.0013523276
119	0xba2b5d86	-0.00065370684
120	0xbb0ff35f	-0.0021965129
121	0x3c0c2d6a	0.008555749
122	0x3b9ec0fd	0.0048447833
123	0x3abe13a0	0.0014501698
124	0x3b24d234	0.0025149705
125	0x3b178f0c	0.0023126034
126	0x3b1418c1	0.0022597762
127	0x392dc5c2	0.00016572236
128	0xba2d7481	-0.00066167867
129	0xbab63ca8	-0.0013903575
130	0x3ba72906	0.005101326
131	0x3ba40085	0.0050049447
132	0x3b9f8cd9	0.0048690853
133	0x3b83658d	0.0040099085
134	0x3b55aca1	0.0032604116
135	0xbb0ff35f	-0.0021965129
136	0x3c0c2d6a	0.008555749
137	0x3b9ec0fd	0.0048447833
138	0x3abe13a0	0.0014501698
139	0x3b24d234	0.0025149705
140	0x3ae4e8fa	0.0017464452
141	0xbb09d349	-0.0021030477
142	0x3b3cb9ca	0.0028797262
143	0x3aaa7c8f	0.0013007092
144	0xbb7f7f29	-0.0038985705
145	0x3af5a00c	0.0018739714
146	0x3b17354c	0.002307254
147	0x3a4dac38	0.0007845792
148	0xbaa49b48	-0.0012558484
149	0xb9e2988e	-0.0004321974
150	0x3b60fd88	0.0034330804
151	0x3b752f26	0.0037412136
152	0x3b5aa2e3	0.0033361248
153	0x3ad2572d	0.0016047709
154	0x3b022ab1	0.0019861872
155	0x3ae4e8fa	0.0017464452
156	0xbb09d349	-0.0021030477
157	0x3b3cb9ca	0.0028797262
158	0x3aaa7c8f	0.0013007092
159	0xbb7f7f29	-0.0038985705
160	0xba0132b9	-0.0004928518
161	0xb8a6f40b	-7.9609534e-05
162	0xb9fa3b92	-0.000477281
163	0xbaa13238	-0.0012298292
164	0x3a817ccc	0.0009879111
165	0x3a3a02c5	0.00070957496
166	0x39375e6a	0.00017487412
167	0xb9e9d6b4	-0.0004460119
168	0x3ae6194e	0.0017555149
169	0x39285ba2	0.00016055864
170	0xba0cd833	-0.00053727924
171	0xbaae6e87	-0.0013308086
172	0x3964fa9e	0.00021837137
173	0x39d62f3c	0.00040852453
174	0xba29806c	-0.0006465975
175	0xba0132b9	-0.0004928518
176	0xb8a6f40b	-7.9609534e-05
177	0xb9fa3b92	-0.000477281
178	0xbaa13238	-0.0012298292
179	0x3a817ccc	0.0009879111
180	0x3b1803ef	0.0023195704
181	0xbbea8369	-0.0071567786
182	0x3a1169f7	0.0005547101
183	0xb924637a	-0.00015677317
184	0xbb2a6d81	-0.002600521
185	0x3aaf40b8	0.0013370728
186	0x3b1d312a	0.0023985603
187	0x39c9d1b2	0.00038493943
188	0xbb2a4da7	-0.0025986226
189	0xb9a2350f	-0.0003093858
190	0x3b2b6c56	0.0026157103
191	0x3b661188	0.0035105664
192	0x3ad62d52	0.0016340411
193	0x3a9f5f6a	0.0012159173
194	0x3addc3c0	0.00169193
195	0x3b1803ef	0.0023195704
196	0xbbea8369	-0.0071567786
197	0x3a1169f7	0.0005547101
198	0xb924637a	-0.00015677317
199	0xbb2a6d81	-0.002600521
200	0x3b00d876	0.001966027
201	0xbb2f887d	-0.0026784234
202	0xbaa3f247	-0.0012508117
203	0x3b5684e2	0.0032733013
204	0xbb646c82	-0.0034854715
205	0x3a6a7599	0.0008943915
206	0x3a7c5004	0.00096249604
207	0x3a2ffa3d	0.00067130086
208	0xba4a2929	-0.0007711822
209	0x394de713	0.00019636405
210	0xb8c7e2fc	-9.5313386e-05
211	0x3a482f7d	0.0007636471
212	0xb948f4f6	-0.00019164741
213	0xb9ee471e	-0.00045447884
214	0xb9486ab5	-0.00019113238
215	0x3b00d876	0.001966027
216	0xbb2f887d	-0.0026784234
217	0xbaa3f247	-0.0012508117
218	0x3b5684e2	0.0032733013
219	0xbb646c82	-0.0034854715
220	0x3b7ed609	0.00388849
221	0x36d53e9a	6.3551824e-06
222	0x3b177fdf	0.0023116989
223	0x3a833539	0.0010010368
224	0xbbe00389	-0.006836359
225	0x3b058c73	0.0020377904
226	0x3b1d0501	0.0023959281
227	0x39866625	0.00025634575
228	0xbad0b2e1	-0.0015922451
229	0xba2e1391	-0.0006640489
230	0x3b0efacc	0.0021816967
231	0x3b1f68e5	0.0024323997
232	0x3ab70840	0.0013964251
233	0x3a6e51f5	0.0009091192
234	0x3aac8786	0.0013162948
235	0x3b7ed609	0.00388849
236	0x36d53e9a	6.3551824e-06
237	0x3b177fdf	0.0023116989
238	0x3a833539	0.0010010368
239	0xbbe00389	-0.006836359
240	0xb8b5bb6b	-8.665662e-05
241	0xbaac53e6	-0.0013147562
242	0x3b1acf10	0.0023621954
243	0xbad0f5b2	-0.0015942364
244	0x39a96307	0.00032307973
245	0xba02ca33	-0.00049892365
246	0xba7fdee0	-0.0009760689
247	0xb9a191b7	-0.0003081688
248	0x39552518	0.00020327081
249	0xb9ded8fd	-0.00042504809
250	0x3ac29531	0.0014845488
251	0x3a51b003	0.0007998945
252	0x3a8e83c0	0.0010873005
253	0x3aad9052	0.0013241863
254	0x3a8a6614	0.0010558986
255	0xb8b5bb6b	-8.665662e-05

exp_avg_sq f4 [128, 20]
0	0x3883b8cb	6.280987e-05
1	0x38a1cd10	7.715274e-05
2	0x38bd58cf	9.028764e-05
3	0x38898033	6.556548e-05
4	0x3898790a	7.27047e-05
5	0x367bf8ac	3.754666e-06
6	0x364d1257	3.0558056e-06
7	0x36168092	2.242658e-06
8	0x36013cd3	1.9257902e-06
9	0x35e13424	1.6778981e-06
10	0x384dc2fd	4.9057406e-05
11	0x3847d54b	4.764394e-05
12	0x3826a86b	3.9734336e-05
13	0x37fdc7ec	3.0253046e-05
14	0x37bd7917	2.2586943e-05
15	0x3883b8cb	6.280987e-05
16	0x38a1cd10	7.715274e-05
17	0x38bd58cf	9.028764e-05
18	0x38898033	6.556548e-05
19	0x3898790a	7.27047e-05
20	0x387e6807	6.0655202e-05
21	0x3892f325	7.007112e-05
22	0x38764f61	5.8724898e-05
23	0x3889477c	6.545984e-05
24	0x3897c4a5	7.236869e-05
25	0x364f3807	3.0878016e-06
26	0x3620f83c	2.398635e-06
27	0x3621dae0	2.4118272e-06
28	0x3634c289	2.6935325e-06
29	0x36139d3b	2.1996227e-06
30	0x38482f26	4.7727626e-05
31	0x383f1b85	4.5563578e-05
32	0x3815d700	3.5724603e-05
33	0x37e3677f	2.7108703e-05
34	0x37b1777b	2.1155682e-05
35	0x387e6807	6.0655202e-05
36	0x3892f325	7.007112e-05
37	0x38764f61	5.8724898e-05
38	0x3889477c	6.545984e-05
39	0x3897c4a5	7.236869e-05
40	0x388aaf03	6.612951e-05
41	0x385a5a5f	5.2059415e-05
42	0x3829d12a	4.048754e-05
43	0x3876a637	5.880577e-05
44	0x38596abb	5.1836232e-05
45	0x36592e44	3.236245e-06
46	0x363f7ac4	2.8532677e-06
47	0x35f907cd	1.8554216e-06
48	0x361a84bf	2.3025057e-06
49	0x35ffa277	1.9046264e-06
50	0x380f2eef	3.4137567e-05
51	0x38036d7e	3.1334806e-05
52	0x37da47f1	2.6021125e-05
53	0x37b0dcda	2.1083677e-05
54	0x37834eaa	1.5653048e-05
55	0x388aaf03	6.612951e-05
56	0x385a5a5f	5.2059415e-05
57	0x3829d12a	4.048754e-05
58	0x3876a637	5.880577e-05
59	0x38596abb	5.1836232e-05
60	0x3976cfda	0.00023537819
61	0x396bb78d	0.00022479724
62	0x397a7577	0.00023885617
63	0x391b3230	0.00014800648
64	0x394f9509	0.00019796578
65	0x370513cc	7.932027e-06
66	0x369c648f	4.660869e-06
67	0x36124001	2.179295e-06
68	0x368643c2	4.0013992e-06
69	0x368636dd	3.999898e-06
70	0x38ee1df1	0.000113543014
71	0x38e2935e	0.00010803969
72	0x38b98e10	8.8479486e-05
73	0x388f9be4	6.847808e-05
74	0x3853ac9b	5.046707e-05
75	0x3976cfda	0.00023537819
76	0x396bb78d	0.00022479724
77	0x397a7577	0.00023885617
78	0x391b3230	0.00014800648
79	0x394f9509	0.00019796578
80	0x38677e8a	5.519254e-05
81	0x388c2c0a	6.683923e-05
82	0x38ac11eb	8.2049366e-05
83	0x386ea4fa	5.689727e-05
84	0x3896ac8e	7.184698e-05
85	0x36a019f3	4.7713925e-06
86	0x36a915f1	5.039147e-06
87	0x3630caf5	2.634418e-06
88	0x366389be	3.3905812e-06
89	0x3643429d	2.9096038e-06
90	0x383ddb01	4.5265075e-05
91	0x382d6121	4.1336873e-05
92	0x380df212	3.3842465e-05
93	0x37e32735	2.7078766e-05
94	0x37b14b33	2.1135062e-05
95	0x38677e8a	5.519254e-05
96	0x388c2c0a	6.683923e-05
97	0x38ac11eb	8.2049366e-05
98	0x386ea4fa	5.689727e-05
99	0x3896ac8e	7.184698e-05
100	0x3896113e	7.155769e-05
101	0x3880c905	6.1409584e-05
102	0x3878b821	5.929929e-05
103	0x38384a06	4.393796e-05
104	0x387105b3	5.7464185e-05
105	0x36583d7d	3.22223e-06
106	0x36311e5b	2.6392725e-06
107	0x36488133	2.9877526e-06
108	0x35feb2d4	1.897652e-06
109	0x360ea6ec	2.125681e-06
110	0x38351342	4.3171698e-05
111	0x382c0b05	4.101826e-05
112	0x380fece1	3.4314467e-05
113	0x37e50470	2.7300994e-05
114	0x379f7156	1.9007053e-05
115	0x3896113e	7.155769e-05
116	0x3880c905	6.1409584e-05
117	0x3878b821	5.929929e-05
118	0x38384a06	4.393796e-05
119	0x387105b3	5.7464185e-05
120	0x38707948	5.733341e-05
121	0x3886ca86	6.427341e-05
122	0x387fd5e9	6.0995957e-05
123	0x3836dabc	4.3595894e-05
124	0x3878abfa	5.9287973e-05
125	0x3627082f	2.4889703e-06
126	0x35c8876c	1.4940574e-06
127	0x35c157aa	1.4405134e-06
128	0x35a79d49	1.2488246e-06
129	0x35aa70aa	1.2698777e-06
130	0x381b8b16	3.7084414e-05
131	0x3812464e	3.487459e-05
132	0x37eec301	2.8462617e-05
133	0x37bb3fc8	2.2321838e-05
134	0x378c942d	1.67583e-05
135	0x38707948	5.733341e-05
136	0x3886ca86	6.427341e-05
137	0x387fd5e9	6.0995957e-05
138	0x3836dabc	4.3595894e-05
139	0x3878abfa	5.9287973e-05
140	0x38e3c100	0.000108601525
141	0x38dbc8c4	0.00010480129
142	0x38d8025d	0.00010300123
143	0x38f40218	0.00011635217
144	0x38f0e4d8	0.00011486717
145	0x37085351	8.12563e-06
146	0x3697688c	4.5123215e-06
147	0x36aa403b	5.073872e-06
148	0x361fe307	2.3824994e-06
149	0x3660b017	3.3481099e-06
150	0x38dd2178	0.00010544335
151	0x38d9b985	0.00010381922
152	0x38b0c4ea	8.429012e-05
153	0x3884563a	6.3103114e-05
154	0x3843067f	4.6497673e-05
155	0x38e3c100	0.000108601525
156	0x38dbc8c4	0.00010480129
157	0x38d8025d	0.00010300123
158	0x38f40218	0.00011635217
159	0x38f0e4d8	0.00011486717
160	0x38902226	6.872816e-05
161	0x3890883e	6.891832e-05
162	0x38833b12	6.2575695e-05
163	0x38860fd0	6.392563e-05
164	0x38507166	4.9696675e-05
165	0x3648029d	2.9803844e-06
166	0x35fabd66	1.8681574e-06
167	0x3601aa05	1.9321462e-06
168	0x361f896c	2.3772836e-06
169	0x35de4d05	1.6562705e-06
170	0x3836c908	4.3579406e-05
171	0x382ad0e0	4.072569e-05
172	0x3810f3a8	3.4559198e-05
173	0x37dbbbe7	2.6194333e-05
174	0x37a4008c	1.9550578e-05
175	0x38902226	6.872816e-05
176	0x3890883e	6.891832e-05
177	0x38833b12	6.2575695e-05
178	0x38860fd0	6.392563e-05
179	0x38507166	4.9696675e-05
180	0x38a6fbf4	7.962427e-05
181	0x38b22ca2	8.496015e-05
182	0x389617f2	7.1570175e-05
183	0x38bda973	9.043785e-05
184	0x38bc8458	8.9891895e-05
185	0x36a20c62	4.829418e-06
186	0x366ad00a	3.4989812e-06
187	0x36908503	4.307019e-06
188	0x365197e7	3.1231846e-06
189	0x3623aa90	2.4388173e-06
190	0x385bc5bf	5.2397834e-05
191	0x38538fe7	5.044034e-05
192	0x382bc1c0	4.095002e-05
193	0x38029dbe	3.1141324e-05
194	0x37c17a48	2.3064335e-05
195	0x38a6fbf4	7.962427e-05
196	0x38b22ca2	8.496015e-05
197	0x389617f2	7.1570175e-05
198	0x38bda973	9.043785e-05
199	0x38bc8458	8.9891895e-05
200	0x37be88a8	2.27134e-05
201	0x37fe7dc4	3.0337724e-05
202	0x3723aa6e	9.755238e-06
203	0x37f45092	2.9124585e-05
204	0x37a8eab8	2.013646e-05
205	0x3555b2cc	7.9608867e-07
206	0x356a860a	8.7366845e-07
207	0x3524ff92	6.1466665e-07
208	0x353eda6f	7.109838e-07
209	0x34ff1d73	4.7518878e-07
210	0x3755ac13	1.27358535e-05
211	0x374b9abf	1.21357725e-05
212	0x3725355c	9.84719e-06
213	0x37021ecd	7.755775e-06
214	0x36c09a75	5.740027e-06
215	0x37be88a8	2.27134e-05
216	0x37fe7dc4	3.0337724e-05
217	0x3723aa6e	9.755238e-06
218	0x37f45092	2.9124585e-05
219	0x37a8eab8	2.013646e-05
220	0x3804c4f1	3.165467e-05
221	0x38234708	3.892838e-05
222	0x38187fdd	3.6358706e-05
223	0x3820c2b1	3.8328293e-05
224	0x380627de	3.198522e-05
225	0x35cf6bef	1.5454115e-06
226	0x35b2f59c	1.3333515e-06
227	0x35539032	7.8813457e-07
228	0x3596d076	1.1236541e-06
229	0x357c40d8	9.3971676e-07
230	0x37af0865	2.0865535e-05
231	0x37a8f0bc	2.0139261e-05
232	0x37884f74	1.6249462e-05
233	0x3750d31b	1.2446918e-05
234	0x37198c75	9.152213e-06
235	0x3804c4f1	3.165467e-05
236	0x38234708	3.892838e-05
237	0x38187fdd	3.6358706e-05
238	0x3820c2b1	3.8328293e-05
239	0x380627de	3.198522e-05
240	0x37c2ecba	2.3236837e-05
241	0x378fe482	1.7153336e-05
242	0x37c60489	2.3605551e-05
243	0x37ae681e	2.07909e-05
244	0x37deedb8	2.6575159e-05
245	0x35808385	9.57502e-07
246	0x355af364	8.156551e-07
247	0x354e29bb	7.6801706e-07
248	0x34fb54f7	4.6814213e-07
249	0x34e030bb	4.1758707e-07
250	0x37550f43	1.2699343e-05
251	0x3743d6c0	1.1672906e-05
252	0x3727d1b5	1.0002802e-05
253	0x3702bbf4	7.792365e-06
254	0x36c0eee7	5.749858e-06
255	0x37c2ecba	2.3236837e-05

exp_avg f4 [128]
0	0x3ad578dc	0.0016286629
1	0xbb2618ba	-0.0025344328
2	0xbb485170	-0.0030566119
3	0xbbf1b2c9	-0.007376049
4	0xbb4a97b3	-0.0030913174
5	0xbbe4c0ec	-0.006981006
6	0x3c00dee6	0.007865643
7	0x3baa6429	0.0051999283
8	0xba6ce81b	-0.0009037272
9	0x3b7e8340	0.0038835555
10	0xb917d761	-0.00014480717
11	0x3b4d6800	0.0031342506
12	0x3af1eea8	0.0018457966
13	0x3c27deed	0.010246021
14	0xba28055c	-0.000640949
15	0xbb400d89	-0.0029304943
16	0xbbab449f	-0.005226686
17	0xbb462213	-0.0030232712
18	0x3b81d363	0.003961967
19	0x3af59576	0.001873656
20	0x3b5669b0	0.0032716803
21	0xb97b5d39	-0.00023971953
22	0x3b0a3ace	0.002109218
23	0x3b15f61a	0.0022882284
24	0x3b6bf21e	0.0036002467
25	0xbbf34763	-0.0074242814
26	0x3b85e71a	0.0040863873
27	0xbb0f4a61	-0.0021864402
28	0x3ad81e7f	0.0016488581
29	0x3b57654a	0.003286677
30	0x3c57fe61	0.013183207
31	0xbbc99ccb	-0.0061527244
32	0xbb2a1693	-0.0025953397
33	0xba88f812	-0.0010449907
34	0x3b90021b	0.0043947822
35	0x3bcfdf2d	0.0063437433
36	0x3a5ebc2d	0.00084966683
37	0x3b09bb2f	0.002101611
38	0x3adf29cb	0.0017026005
39	0x3b2ff48a	0.0026848637
40	0xba83c3c2	-0.0010052847
41	0xbc1d6096	-0.009605547
42	0x3bdf44fd	0.006813644
43	0xbbefda39	-0.0073197153
44	0x3b22c005	0.002483369
45	0x3b97b588	0.0046297945
46	0xbb9653b4	-0.004587615
47	0xbba5c56e	-0.005058936
48	0x3b44415d	0.0029946186
49	0x3b0aa5e3	0.0021156005
50	0xba5d5aa0	-0.0008443985
51	0xbba6b291	-0.0050872047
52	0x3a57e2a1	0.00082353695
53	0xba5775af	-0.00082191353
54	0xbb2d389f	-0.0026431454
55	0x3bfda2df	0.007740363
56	0xbb2362fd	-0.0024930828
57	0x3c0a9000	0.008457184
58	0x3afb4a69	0.0019171956
59	0x3b969eb4	0.0045965556
60	0xbb0bd384	-0.002133579
61	0x3aad89dd	0.0013239939
62	0xbb1e2fd5	-0.0024137397
63	0xba7f07b2	-0.0009728625
64	0x3b10beaf	0.0022086313
65	0x3aadc1db	0.0013256626
66	0xbb08b2c8	-0.0020858515
67	0xbb615bfe	-0.0034387107
68	0xbc3ad463	-0.011403176
69	0x3b65617c	0.0035000732
70	0x3c2d6d47	0.010585136
71	0xbb931238	-0.004488256
72	0xbb470ab6	-0.0030371374
73	0x3b525d20	0.0032098964
74	0xbadf831b	-0.0017052622
75	0x3bc36ad0	0.005963661
76	0x3b2c37f8	0.0026278477
77	0x3b0e5210	0.0021716394
78	0x3bb04df5	0.005380387
79	0x390d273a	0.00013461421
80	0xbb668e0a	-0.0035179877
81	0x3c9f472d	0.019443119
82	0xbb640939	-0.0034795536
83	0xbb4c03f7	-0.0031130293
84	0xbb77368d	-0.0037721724
85	0x3a657288	0.0008752723
86	0x3b22e7b2	0.002485734
87	0x3be7660b	0.007061725
88	0xbae5c1ca	-0.0017529067
89	0xbbde4e1d	-0.006784214
90	0xba193747	-0.0005844724
91	0x3a1da397	0.00060134515
92	0xbac7604b	-0.0015211193
93	0xbc3e7420	-0.011624366
94	0x3b478bde	0.0030448358
95	0xba2e4601	-0.00066480046
96	0xbb5f1de2	-0.003404491
97	0x3b29d820	0.0025916174
98	0x3a1a8da3	0.00058957393
99	0xba222dbc	-0.00061866245
100	0xbbc68fd6	-0.006059627
101	0x3aee5357	0.0018182796
102	0x3c8bed33	0.017080879
103	0x3bf24ab7	0.0073941606
104	0x3ab8cd71	0.0014099312
105	0xbc1a587d	-0.009420511
106	0xba009b03	-0.0004905911
107	0xbbd73650	-0.006567754
108	0xba60efc7	-0.00085806515
109	0xba8d024a	-0.0010758128
110	0x393ffd34	0.00018309505
111	0xba70eb05	-0.0009190294
112	0x3c00c9e3	0.007860634
113	0xbb1d7085	-0.0024023366
114	0x3ac56820	0.0015060939
115	0xba813a0d	-0.000985922
116	0xbc0c87fa	-0.008577341
117	0x3c01e213	0.007927435
118	0x3c1a35a1	0.0094122
119	0x388fdda5	6.860056e-05
120	0x3af1f3f5	0.0018459546
121	0xbbb3d5c3	-0.005488129
122	0xbaca0b2c	-0.0015414706
123	0xb8a264c3	-7.74353e-05
124	0xb9d10623	-0.0003986816
125	0x3b5c0744	0.0033573667
126	0xbbc58464	-0.006027745
127	0x3b01ad00	0.0019786954
