src/checkpoints/policy_best.pt (torch, 250719 bytes, 24 tensors)

actor_logstd f4 [5]
0	0x3fe99f95	1.8251826
1	0x3fc384ff	1.5274962
2	0x3ff09f26	1.8798568
3	0x3ff96923	1.948521
4	0x3fdffe1f	1.7499427

shared.0.weight f4 [128, 20]
0	0xbf37209b	-0.71534127
1	0x3f131439	0.5745273
2	0xbdaafd7e	-0.08349131
3	0x3f73438c	0.95024943
4	0x3e27c49c	0.16383594
5	0x3f1f2bf1	0.62176424
6	0xbf3d7de4	-0.7402022
7	0x3e46d78d	0.19418164
8	0xbf22bd41	-0.6357003
9	0xbea9fd20	-0.33200932
10	0xbece69f0	-0.403152
11	0xbeea7281	-0.45790485
12	0x3bfc93f5	0.0077080675
13	0x3d80927e	0.06277941
14	0xbe29fccf	-0.16600345
15	0xbf11d4b3	-0.5696518
16	0x3f059e7d	0.5219496
17	0xbe76b0cb	-0.24090879
18	0x3f6f9dee	0.93600357
19	0x3ee0d65c	0.43913543
20	0x3f20c109	0.6279455
21	0x3ef51289	0.47865704
22	0x3f824702	1.017792
23	0x3deab6f8	0.1146068
24	0x3f167250	0.5876818
25	0x3f5f12e2	0.8713819
26	0xbebe90fb	-0.37219986
27	0x3f1f5b38	0.62248564
28	0x3f3bf0f2	0.7341453
29	0xbf5de813	-0.8668224
30	0xbdb78b8a	-0.08962162
31	0x3f087cb2	0.5331527
32	0xbec593d4	-0.38589346
33	0xbf08c2a1	-0.5342198
34	0xbf00ecce	-0.50361335
35	0x3ed49028	0.41516232
36	0x3f0dea19	0.5543533
37	0x3f9e922d	1.2388359
38	0x3d694a4a	0.056955613
39	0x3f22bf94	0.63573575
40	0x3f262b7b	0.64910096
41	0xbd081b7b	-0.033229332
42	0xbf9fa8be	-1.2473371
43	0xbe591b28	-0.21201766
44	0x3edc3084	0.43005764
45	0xbc77c0fb	-0.015121694
46	0xbf70d11c	-0.94069076
47	0xbfa6ce3a	-1.3031685
48	0x3e80dffa	0.2517088
49	0xbfacdc0f	-1.3504657
50	0xbf27a3d3	-0.6548435
51	0xbeeaad74	-0.4583546
52	0xbe3cd2b9	-0.1843976
53	0xbd2f66db	-0.0428227
54	0xbe243e71	-0.16039445
55	0x3f580fb9	0.8439899
56	0xbd1b1628	-0.037862927
57	0xbf913ac4	-1.1346059
58	0xbe37579b	-0.17904513
59	0x3ee8ef64	0.4549514
60	0x3db1698a	0.08662708
61	0x3e947025	0.2899181
62	0xbc3e337f	-0.011608957
63	0xbda4ff1d	-0.080564715
64	0x3d926caa	0.07149632
65	0x3e3203a6	0.17384204
66	0x3fec9376	1.8482502
67	0x406f0157	3.7344568
68	0xbf1c2fda	-0.61010516
69	0x3e98b6c7	0.29826948
70	0x3f0e5428	0.5559716
71	0xbe856b82	-0.26058584
72	0xbe5cd472	-0.21565416
73	0x3ea926d7	0.33037445
74	0xbee8c348	-0.45461488
75	0xbce2ea48	-0.027699605
76	0xbdc7566a	-0.09733279
77	0x3dc6dba0	0.09709859
78	0x3c90f129	0.01769312
79	0xbd3cc127	-0.046082642
80	0x3edd7e47	0.43260404
81	0x3e5c5f84	0.21520811
82	0xbe66baee	-0.22532246
83	0x3e64eca8	0.22355902
84	0x3ded5a17	0.11589449
85	0x3edcce96	0.43126363
86	0xbe0c0404	-0.13673407
87	0x3ee3eddd	0.44517413
88	0x3f18ec5a	0.59735644
89	0x3fb9d925	1.4519392
90	0x3f367ad9	0.712812
91	0x3eb1f653	0.34758243
92	0x3d645042	0.055740602
93	0xbeb7ed8a	-0.35923415
94	0x3e7280be	0.23681924
95	0x3ecb4d09	0.3970721
96	0x3d848499	0.064706035
97	0xbe55dd12	-0.20885113
98	0x3e3adbf8	0.18247974
99	0x3d9af11a	0.07565518
100	0xbe1cfc07	-0.15330516
101	0xbc07b789	-0.008283504
102	0x3e7b67e9	0.24551357
103	0xbf5b46e6	-0.8565506
104	0x3f1b4282	0.6064836
105	0xbf204911	-0.6261149
106	0xbe0d24f3	-0.13783626
107	0x3e07abe9	0.13249172
108	0x3f59e469	0.8511415
109	0x3f10d1e7	0.56570286
110	0xbdf559fe	-0.11980055
111	0xbf12b425	-0.5730613
112	0x3ee36e99	0.44420317
113	0x3ef36605	0.47538772
114	0x3e36f46e	0.1786668
115	0xbec38987	-0.38190863
116	0x3e6925a8	0.22768271
117	0x3f21720a	0.63064635
118	0xbf8bed5d	-1.0931813
119	0x3f24e45c	0.6441095
120	0x3e8b4f45	0.27208915
121	0x3ea479e9	0.3212426
122	0xbe84ebd2	-0.25961167
123	0x3eb65683	0.35612878
124	0x3d3fb17e	0.04680013
125	0xbf2dd228	-0.678988
126	0xc02a52ab	-2.6612957
127	0xbf2d6f52	-0.67747986
128	0xbf2e364d	-0.68051606
129	0xbff9fa8b	-1.9529585
130	0xbed795f1	-0.42106584
131	0xbe63407f	-0.22192572
132	0xbd8be115	-0.0683004
133	0x3e4cf38b	0.2001478
134	0x3dabcdfa	0.08388896
135	0x3e8cfad1	0.27535108
136	0x3e89f08f	0.26941344
137	0x3acad528	0.0015474902
138	0x3e0aa323	0.13538794
139	0x3dcd65a1	0.1002915
140	0x3c8e0572	0.01733658
141	0xbe261946	-0.16220579
142	0xbd0d8173	-0.03454728
143	0xbe94f90a	-0.29096252
144	0xbcc94054	-0.024566807
145	0xbf7c3410	-0.9851694
146	0xbf73760d	-0.95102006
147	0x3e370f03	0.1787682
148	0xbfdaeb5e	-1.7103078
149	0xbe86ae78	-0.26304984
150	0x3e5912b4	0.21198541
151	0x3e7bedd8	0.24602449
152	0x3d75da72	0.06002278
153	0xbe35b3ad	-0.17744322
154	0xbeae9537	-0.34098217
155	0xbe138bed	-0.14408846
156	0xbdabcf8e	-0.08389197
157	0x3ea76e00	0.3270111
158	0xbda2d4a3	-0.079507135
159	0xbcdb9b2c	-0.02680739
160	0x3e437f60	0.19091558
161	0x3d7cf084	0.06175281
162	0x3f0c815e	0.548849
163	0xbedb36bb	-0.42815194
164	0xbf1d933c	-0.61552787
165	0xbefbd0df	-0.49182793
166	0xc01838d9	-2.3784697
167	0xbf67c097	-0.90528244
168	0x3f9519f7	1.1648549
169	0xbf592f08	-0.8483739
170	0x3d4ad322	0.04951776
171	0x3dddc9d6	0.10829513
172	0xbe59a385	-0.21253784
173	0xbf185b5a	-0.5951439
174	0xbe80ffe7	-0.25195238
175	0x3ea9ca72	0.33162266
176	0x3e2fcf50	0.17168927
177	0x3eeed4a0	0.46646595
178	0xbe7e1e85	-0.2481633
179	0xbf141e6a	-0.5785891
180	0xbe03b999	-0.12863769
181	0xbea62e82	-0.32457358
182	0x3eae473d	0.34038725
183	0x3e8a1d4b	0.26975474
184	0x3ca531f9	0.02016543
185	0x3f1e948b	0.6194541
186	0x3eb9dccf	0.36301276
187	0x3e130440	0.1435709
188	0x3e24ce45	0.1609431
189	0x3dc3f738	0.095686376
190	0xbf1b6517	-0.60701126
191	0xbf342800	-0.70373535
192	0x3cd51e58	0.026015446
193	0xbe9efd3c	-0.31052577
194	0xbe28c538	-0.16481483
195	0x3e8599f5	0.26094022
196	0xbb2da616	-0.00264967
197	0x3e877423	0.26455793
198	0x3e9f72a7	0.3114216
199	0x3e88d240	0.26722908
200	0x3f0699dc	0.5257852
201	0x3f1b07c0	0.605587
202	0xbf9ec54a	-1.2403958
203	0xbe6757d2	-0.22592095
204	0x3f274383	0.6533739
205	0x3f7eba46	0.9950298
206	0x3fccded9	1.6005508
207	0xbe9d18d3	-0.30683002
208	0xbf486ff6	-0.7829584
209	0x3c83d6f9	0.016093718
210	0x3eac8ec2	0.33702666
211	0xbe8fa271	-0.2805362
212	0xbd93e50a	-0.0722142
213	0x3cf08199	0.029358672
214	0xbf32b40b	-0.69805974
215	0x3ec218f9	0.37909678
216	0x3ec4a7fc	0.38409412
217	0xbfaf75ac	-1.3707786
218	0xbe80fb17	-0.25191566
219	0x3eb983bf	0.36233327
220	0x3f32a459	0.69782025
221	0xbcebf57c	-0.02880358
222	0xbe0562d1	-0.13025977
223	0x3efe45a9	0.4966252
224	0x3eddeabb	0.43343148
225	0xbeb3b779	-0.35100916
226	0x3e09c484	0.13453871
227	0x3f0f5541	0.5598946
228	0xbfde6331	-1.7374021
229	0xbfea393d	-1.8298718
230	0xbeb1217b	-0.34595856
231	0xbd9c4fdf	-0.07632422
232	0xbd6a77ed	-0.057243276
233	0xbc0342a3	-0.008011493
234	0xbf04191d	-0.5160082
235	0x3f345655	0.7044423
236	0xbd56b47e	-0.052418225
237	0xbe347df6	-0.17626175
238	0x3e5adce4	0.21373326
239	0x3f330b05	0.6993869
240	0xbf36da3c	-0.7142675
241	0xbf753ff9	-0.9580074
242	0xbe334b9b	-0.1750931
243	0xbf5d2c74	-0.86395955
244	0xbf4e8290	-0.8066797
245	0x3f15773b	0.58385056
246	0x3f77c6f7	0.9678797
247	0x3cb82cfb	0.022482386
248	0xbf11b3ee	-0.56915176
249	0xbde688db	-0.11256572
250	0xbee4dd84	-0.44700253
251	0xbeaaf977	-0.33393452
252	0x3d3eabc1	0.046550516
253	0xbee9008c	-0.4550823
254	0xbedc2962	-0.43000323
255	0xbf2898f0	-0.65858364

shared.0.bias f4 [128]
0	0xbd531604	-0.051534668
1	0xbd3d547a	-0.04622314
2	0xbe5ad4d0	-0.21370244
3	0x3c676a1c	0.01412442
4	0x3e7455e2	0.23860887
5	0x3e671105	0.22565086
6	0x3e8a4791	0.27007726
7	0x3c5208a2	0.012819441
8	0xbebe8c28	-0.37216306
9	0xbec674e9	-0.3876107
10	0xbe54c661	-0.207788
11	0x3e3be596	0.18349299
12	0xbe3161fc	-0.17322534
13	0xbd708ce8	-0.05872813
14	0x3e1c92b3	0.15290336
15	0x3e587986	0.21140108
16	0xbe793412	-0.2433627
17	0xbeaa1a2a	-0.33223087
18	0x3e49bdbb	0.19701283
19	0x3e059d36	0.13048252
20	0x3e7f6ba4	0.24943405
21	0xbe614cf3	-0.2200201
22	0x3dac68c0	0.08418417
23	0x3ed253a8	0.4107945
24	0xbeac46ee	-0.33647865
25	0x3e1390be	0.14410684
26	0x3e3ee724	0.1864286
27	0xbdb76604	-0.08955005
28	0x3e470c9d	0.19438405
29	0x3ea58a3c	0.32332027
30	0xbd93d47a	-0.07218261
31	0xbea89feb	-0.32934508
32	0xbe3147e5	-0.17312582
33	0xbe2dc35f	-0.1696906
34	0x3e007589	0.12544836
35	0x3cc0b4cb	0.023523709
36	0xbe352dd3	-0.17693262
37	0x3e4e86d9	0.20168628
38	0x3e9b8e25	0.30381885
39	0x3e9b6014	0.3034674
40	0x3ea51cd4	0.32248557
41	0x3dd1c7e3	0.102432035
42	0x3ec9b721	0.3939753
43	0xbe5e3544	-0.21700007
44	0x3e3163f7	0.1732329
45	0x3e40ef00	0.18841171
46	0xbd89e7ca	-0.067336634
47	0xbe481a9e	-0.19541404
48	0xbe7c06da	-0.24611989
49	0xbe956800	-0.29180908
50	0xbe94fe10	-0.29100084
51	0xbe834d9f	-0.25645158
52	0xbc0ed532	-0.008717822
53	0x3f1f7c15	0.6229871
54	0x3b6399fe	0.0034729238
55	0xbe49ba78	-0.19700038
56	0xbe5209e8	-0.20511591
57	0x3e0cfa9d	0.13767476
58	0xbdd99c3e	-0.10625504
59	0x3d54469f	0.051825162
60	0x3d2ad6de	0.04170882
61	0xbe3ec62e	-0.18630287
62	0x3e918261	0.28419784
63	0x3d7f519b	0.062333684
64	0xbc981ca9	-0.018568354
65	0x3ec2a0e8	0.38013387
66	0x3ebc3975	0.36762586
67	0xbec9e352	-0.39431244
68	0x3d971edd	0.073789336
69	0x3da5b588	0.08091265
70	0x3e8da6ef	0.27666423
71	0xbc8a2950	-0.016865402
72	0x3ea76a33	0.3269821
73	0x3e265b39	0.16245736
74	0x3ed2cd32	0.41172177
75	0xbef82190	-0.48463106
76	0x3e4c6ce6	0.19963416
77	0x3ca62121	0.020279469
78	0x3e7ed2cf	0.24885105
79	0xbe4da087	-0.20080768
80	0x3e0a20d9	0.13489093
81	0x3e119ba8	0.14219534
82	0xbcae2066	-0.021255683
83	0xbd382b72	-0.044963308
84	0xbef62614	-0.48075926
85	0x3df05846	0.11735587
86	0x3de50e7d	0.11184404
87	0xbd9efcb7	-0.07763045
88	0x3d3e82bd	0.0465114
89	0x3df68c14	0.120384365
90	0x3eb011b8	0.34388518
91	0xbd257351	-0.040393177
92	0x3de2346d	0.11045156
93	0xbdaff20f	-0.08591091
94	0xbe916cd1	-0.28403333
95	0x3ec5225f	0.38502786
96	0xbee756df	-0.45183465
97	0xbe342c4b	-0.17595021
98	0x3cc08aa6	0.023503613
99	0x3c76ce29	0.015063801
100	0x3d2ddb3d	0.04244541
101	0x3dd39893	0.103318356
102	0x3d7b60d7	0.06137165
103	0xbd218d00	-0.03944111
104	0x3dee458f	0.11634361
105	0xbe4c9590	-0.19978929
106	0xbdd743f7	-0.1051101
107	0xbe9b218b	-0.3029903
108	0xbd0a7367	-0.033801463
109	0xbec16dab	-0.37778983
110	0x3e69aba5	0.22819383
111	0xbe7fc66e	-0.24978039
112	0x3d9885c3	0.07447388
113	0x3c86bb8a	0.016446847
114	0x3d634ad2	0.055491276
115	0x3ce9afe0	0.028526247
116	0x3cf48416	0.02984814
117	0x3deaa541	0.11457301
118	0x3e58699e	0.2113404
119	0x3ed429e5	0.41438213
120	0x3d4ff366	0.050769232
121	0x3e10616a	0.1409966
122	0x3e675980	0.22592735
123	0xbc4ea28c	-0.012611996
124	0x3de23ad6	0.11046378
125	0x3e40e151	0.18835951
126	0xbdb7b5c4	-0.08970216
127	0x3e42f625	0.19039209

shared.2.weight f4 [128, 128]
0	0xbef58717	-0.47954628
1	0x3eeb1ac5	0.4591886
2	0xbebcd7c1	-0.36883357
3	0xbd6ae4ea	-0.057347216
4	0xbd31117c	-0.043229565
5	0xbe61121a	-0.21979561
6	0x39efecd7	0.00045762092
7	0x3ec3abaa	0.38216907
8	0xbe89a431	-0.2688308
9	0xbe8841ea	-0.26612788
10	0xbdf643de	-0.120246634
11	0x3e2adf3c	0.1668672
12	0xbd5d0a76	-0.053965054
13	0x3ba7f8b4	0.0051260833
14	0xbf19b21f	-0.60037416
15	0x3dc18b6e	0.09450422
16	0xbe331340	-0.17487812
17	0xbedcbd01	-0.4311295
18	0xbe67fc5e	-0.22654864
19	0xbdd7ece7	-0.105432324
20	0x3a9c66cb	0.001193249
21	0xbb023091	-0.0019865374
22	0xbe5774fd	-0.21040721
23	0x3d84161f	0.06449532
24	0x3eab5db3	0.33469924
25	0xbf4f400a	-0.8095709
26	0x3f4fecaf	0.81220526
27	0xbf838095	-1.0273615
28	0x3d11249f	0.035435315
29	0x3ebd3f43	0.36962327
30	0x3f219417	0.6311659
31	0xbe4e5a56	-0.20151648
32	0xbe677f1d	-0.22607084
33	0x3e67c1d7	0.22632538
34	0x3f176cf4	0.59150624
35	0xbf0c6205	-0.54837066
36	0xbf39d15c	-0.7258508
37	0x3e5262df	0.20545529
38	0xbd780c8d	-0.060558844
39	0x3e9fc016	0.31201237
40	0x3f0ebee8	0.5576005
41	0xbec23440	-0.3793049
42	0xbf2c4522	-0.6729299
43	0xbeef112c	-0.4669279
44	0x3c194c29	0.009356537
45	0x3eebe8b1	0.46075967
46	0x3dadbedb	0.084836684
47	0xbf1f807c	-0.62305427
48	0xbbb19f2b	-0.0054205856
49	0xbe04a460	-0.12953329
50	0xbd9ed5e5	-0.07755641
51	0x3c2c9887	0.010534412
52	0xbed322e4	-0.41237557
53	0x3e34274d	0.17593117
54	0x3dae83f6	0.08521263
55	0x3eee6551	0.46561673
56	0x3d2c4c3b	0.042064887
57	0x3e86e92f	0.2634978
58	0x3e894093	0.2680708
59	0xbd9b483b	-0.07582136
60	0xbe9386ec	-0.28813875
61	0xbeacd544	-0.3375646
62	0xbeb501ea	-0.35353023
63	0xbe516d04	-0.20451742
64	0x3eb84110	0.3598714
65	0x3f24d6a3	0.6439001
66	0xbe5c6c7b	-0.21525757
67	0x3df7da50	0.12102187
68	0xbedee933	-0.43537292
69	0xbbf1e381	-0.007381857
70	0x3f1adadf	0.6049022
71	0x3efcc98b	0.49372515
72	0xbcb43bbc	-0.02200114
73	0xbeda4937	-0.42633983
74	0x3f0a15bf	0.5393943
75	0xbeebfd51	-0.46091703
76	0xbb124dc5	-0.0022324186
77	0x3ee88301	0.45412448
78	0x3e6757bd	0.22592063
79	0xbe526044	-0.20544535
80	0xbe2f4bbe	-0.17118737
81	0x3f3002a8	0.68754053
82	0xbe5dd3bb	-0.216628
83	0xbe213d9e	-0.15746161
84	0x389e9f58	7.563707e-05
85	0xbd71d05c	-0.059036598
86	0x3cb17c8f	0.02166584
87	0x3da788e2	0.08180405
88	0xbeb358ec	-0.3502878
89	0x3ea0e925	0.31427875
90	0x3e57fafa	0.21091834
91	0x3e80a133	0.25122985
92	0xbe785a34	-0.2425316
93	0xbf4cc7be	-0.7999228
94	0xbd64b578	-0.055837125
95	0xbe9bad69	-0.3040574
96	0xbf087678	-0.5330577
97	0xbf05b845	-0.522343
98	0x3e36e3d1	0.17860343
99	0xbe3b5fb6	-0.1829823
100	0xbeaa2c1d	-0.3323678
101	0x3ea12ded	0.3148035
102	0x3ebf2847	0.37335417
103	0xbdaa02bc	-0.08301303
104	0x3e4cb5e5	0.19991262
105	0xbf0a5710	-0.54039097
106	0x3eb0b0e2	0.3450995
107	0x3ed47e1d	0.41502467
108	0xbe9030c7	-0.28162214
109	0xbf000f6e	-0.50023544
110	0x3e2992b6	0.16559872
111	0xbe991e4c	-0.29905927
112	0x3f2f3b4f	0.6844987
113	0xbf166bbb	-0.58758134
114	0x3d974a7a	0.07387252
115	0xbf218d16	-0.63105905
116	0x3d4b90be	0.049698584
117	0x3f42a1a9	0.76027924
118	0x3ed22944	0.41047108
119	0x3d82e207	0.063907675
120	0xbef7e3d1	-0.48415998
121	0xbe564f48	-0.20928681
122	0x3f23701c	0.6384294
123	0xbf09841c	-0.5371721
124	0xbeb34c4e	-0.35019153
125	0xbc7a0560	-0.015260071
126	0xbea05932	-0.3131805
127	0x3ddc3602	0.10752489
128	0xbe5202a0	-0.20508814
129	0x3e408a05	0.1880265
130	0x3e6f54ec	0.23372239
131	0xbec8696c	-0.3914293
132	0xbdebad8c	-0.11507711
133	0x3edd8b54	0.4327036
134	0x3f3d64a5	0.73981696
135	0x3e875bbd	0.26437178
136	0x3ed624b8	0.4182489
137	0x3e0e83d1	0.13917471
138	0x3ebc74f3	0.36807975
139	0x3ec9c9d9	0.3941181
140	0xbf121f11	-0.57078654
141	0xbda05006	-0.07827763
142	0x3f47c530	0.7803526
143	0xbe8af119	-0.27137068
144	0xbe2ba5dc	-0.16762489
145	0x3e56cccd	0.20976563
146	0x3ef26130	0.47339773
147	0xbef49ccc	-0.47775877
148	0x3ded75c8	0.115947306
149	0x3f1ad0ea	0.6047503
150	0xbe174cd9	-0.14775409
151	0x3dce0b55	0.10060755
152	0x3ea24f79	0.31701258
153	0xbd353f50	-0.044249833
154	0x3df8f8b8	0.12156814
155	0x3e29f24c	0.16596335
156	0xbdb1496c	-0.08656582
157	0x3e9815f6	0.29704255
158	0x3f2f0bd7	0.6837744
159	0x3ed13ec3	0.40868196
160	0xbf88b354	-1.0679727
161	0xbe1073f3	-0.14106731
162	0x3ea6a1c9	0.32545307
163	0x3eda469b	0.42631993
164	0xbefe4b32	-0.49666744
165	0x3f2c22b7	0.6724047
166	0x3eea7bbd	0.4579753
167	0x3ea7341e	0.3265695
168	0xbf16e174	-0.58937764
169	0x3ec79cd6	0.38986844
170	0x3ee7e1b4	0.45289385
171	0xbecacee0	-0.39610958
172	0xbe1e7e87	-0.15477954
173	0xbeb8d39d	-0.36098948
174	0xbf1c7494	-0.61115384
175	0xbeeac195	-0.45850816
176	0x3e7c7512	0.24654034
177	0x3f150651	0.58212763
178	0x3e7ada86	0.24497423
179	0x3e800dbf	0.25010487
180	0xbf39a086	-0.72510564
181	0x3ea3f67c	0.3202399
182	0x3e8fbdb5	0.28074422
183	0x3f23a298	0.63919973
184	0xbec95b87	-0.39327642
185	0x3ec5a261	0.38600448
186	0x3f1bed2f	0.6090879
187	0xbe2c6b1c	-0.16837734
188	0x3d16e3ae	0.036838226
189	0x3db4d0fa	0.088289216
190	0xbeac8e66	-0.3370239
191	0xbeaed065	-0.34143367
192	0x3e15226f	0.14563917
193	0xbeed6443	-0.46365556
194	0xbe9048c9	-0.2818053
195	0xbee8078d	-0.4531826
196	0x3ef0f5c5	0.47062507
197	0x3e7d8475	0.2475756
198	0x3ecaf7f4	0.39642298
199	0xbf89add6	-1.0756176
200	0xbeae75fc	-0.3407439
201	0x3e64900d	0.22320576
202	0x3f137fb9	0.57616764
203	0x3e54a864	0.20767361
204	0xbee9a559	-0.45633963
205	0xbb733a5f	-0.003711365
206	0xbdabc05d	-0.083863
207	0xbdbaf75e	-0.09129213
208	0xbe8365ac	-0.25663507
209	0x3e5304a6	0.20607242
210	0x3d780152	0.060548134
211	0x3dea7210	0.11447537
212	0x3ec70337	0.3886964
213	0x3dc06356	0.09393947
214	0x3e365be0	0.17808485
215	0x3db00276	0.085942194
216	0xbca5829e	-0.020203885
217	0x3e24ded0	0.16100621
218	0xbf01fa92	-0.50772965
219	0xbd335984	-0.04378654
220	0xbe8ad9eb	-0.27119383
221	0xbf055198	-0.5207763
222	0xbf5abf69	-0.8544832
223	0xbe36ab7e	-0.17838857
224	0x3f3a37e3	0.72741526
225	0x3ee531b4	0.44764483
226	0xbf17bf9d	-0.59276754
227	0xbd51ba02	-0.05120278
228	0xbee35da1	-0.4440737
229	0xbda0bcd6	-0.078485176
230	0x3ececbd1	0.40389875
231	0x3ef8f0e7	0.48621294
232	0xbf1742fc	-0.59086585
233	0xbf5ea035	-0.86963207
234	0xbdcb3c1c	-0.09923574
235	0xbedeab53	-0.43490085
236	0xbe9c99e3	-0.30586156
237	0x3f500840	0.8126259
238	0xbe91e7eb	-0.28497252
239	0x3e3bd1ae	0.18341705
240	0x3f37dc83	0.7182085
241	0xbf0667d8	-0.52502203
242	0x3e9da975	0.30793348
243	0x3c94f257	0.018181963
244	0xbf15d48e	-0.5852746
245	0x3e0fc47c	0.14039797
246	0xbdf3c7bb	-0.1190333
247	0xbda26d97	-0.07931059
248	0xbcf900a4	-0.030395813
249	0xbec5b145	-0.38611808
250	0x3e63c75c	0.22244018
251	0x3f04978a	0.5179373
252	0x3e295ddb	0.1653971
253	0x3f28cb74	0.65935445
254	0xbe0d8210	-0.13819146
255	0x3f1f9706	0.6233982

shared.2.bias f4 [128]
0	0x3e81ff49	0.2539008
1	0xbe0c6fdf	-0.1371455
2	0x3e9d1ca5	0.30685917
3	0xbe8c3a64	-0.273883
4	0xbefcf6f9	-0.49407175
5	0x3d83308c	0.06405744
6	0xbe5e03ae	-0.21681091
7	0xbea9727f	-0.33095166
8	0xbf0c6bc1	-0.5485192
9	0xbe0bb117	-0.13641773
10	0x3e42a36f	0.19007657
11	0x3de71b23	0.11284473
12	0xbcabe440	-0.020982862
13	0x3e108226	0.14112148
14	0xbe5adbf6	-0.21372971
15	0xbe98163f	-0.29704472
16	0xbeccdb12	-0.40010887
17	0xbf18b785	-0.5965503
18	0x3e3b2e21	0.18279316
19	0x3e467be6	0.19383201
20	0x3effd4c1	0.49967006
21	0x3eb37803	0.350525
22	0xbea41596	-0.3204772
23	0xbed76492	-0.42068917
24	0xbf0f81b0	-0.5605726
25	0x3e9a5272	0.30141026
26	0xbe89a613	-0.26884517
27	0xbf165a09	-0.5873113
28	0xbe8bc62f	-0.2729964
29	0xbebec61c	-0.3726052
30	0xbd8c006f	-0.0683602
31	0xbe9ca091	-0.30591252
32	0x3eadae66	0.33922118
33	0xbee48311	-0.44631246
34	0x3d3d2bc7	0.046184327
35	0x3e5617b6	0.20907483
36	0xbe819ff3	-0.25317344
37	0xbe987338	-0.29775405
38	0xbe557f07	-0.20849238
39	0xbeccc111	-0.39991048
40	0x3ed8685e	0.42267126
41	0xbde62655	-0.1123778
42	0x3f144e32	0.57931817
43	0xbe5920c7	-0.2120391
44	0xbed47a71	-0.41499665
45	0x3e2abf3f	0.16674517
46	0x3e871a70	0.26387358
47	0xbe8c452a	-0.27396518
48	0xbe0b6517	-0.13612781
49	0xbd95fad4	-0.07323232
50	0xbe8c9d6f	-0.27463862
51	0xbefa07d8	-0.4883411
52	0x3e1577c1	0.14596464
53	0xbec413ad	-0.3829626
54	0x3e23fdb3	0.16014747
55	0xbeb62393	-0.35574016
56	0xbc633aa5	-0.013868962
57	0x3e9f68de	0.31134695
58	0x3eb69324	0.35659134
59	0x3f10b8ce	0.5653199
60	0x3d8b7428	0.068092644
61	0xbecc6ff5	-0.39929166
62	0x3e6a55c4	0.2288428
63	0x3ea82e4b	0.3284782
64	0xbd913db7	-0.07091849
65	0xbe66b12e	-0.22528526
66	0x3c381c19	0.011237168
67	0xbe11f8c5	-0.14255054
68	0xbbef1a7e	-0.0072968593
69	0xbc9be140	-0.019028306
70	0x3ea1e484	0.31619656
71	0x3eb657f4	0.35613978
72	0x3e84a9de	0.25910848
73	0xbeee1cba	-0.46506292
74	0x3e10c4f9	0.14137639
75	0xbe99ae97	-0.30016014
76	0x3e1bde76	0.15221581
77	0xbf51a62c	-0.81894183
78	0xbcad044f	-0.021120219
79	0x3e25a884	0.16177565
80	0x3e2c0130	0.16797328
81	0xbe3967ac	-0.18105954
82	0xbe529c04	-0.20567328
83	0x3e9aafa9	0.30212143
84	0xbe66920d	-0.22516651
85	0xbe04f8fd	-0.12985606
86	0x3e2307c2	0.15920928
87	0x3e481a2c	0.19541234
88	0xbec00600	-0.37504578
89	0x3cf4f55c	0.029902153
90	0xbeb35193	-0.35023174
91	0x3e085062	0.13311914
92	0x3ea5206e	0.32251304
93	0xbe094ce2	-0.13408235
94	0x3ecfb2db	0.40566143
95	0xbd7377ba	-0.059440352
96	0x3e5a0b4b	0.2129337
97	0xbdaf3ee2	-0.08556916
98	0xbe8b56a4	-0.2721454
99	0xbead3dd1	-0.33836225
100	0xbe457ac7	-0.19285117
101	0xbdf7a36e	-0.120917186
102	0xbe943c7a	-0.2895239
103	0x3b8246da	0.0039757313
104	0xbe90d6f6	-0.28289002
105	0xbe09844b	-0.13429372
106	0x3e3c01b3	0.18360023
107	0x3e088c25	0.13334711
108	0x3d9ec634	0.07752648
109	0x3dd0a8d9	0.10188455
110	0x3eebf956	0.46088666
111	0xbeeafccd	-0.45895997
112	0x3ebfa532	0.37430722
113	0x3ef3b624	0.475999
114	0xbe9c0c35	-0.30478063
115	0x3d4e6b35	0.05039521
116	0xbd7ce0c0	-0.061737776
117	0xbe4b7f7c	-0.1987285
118	0xbef4e8a7	-0.4783375
119	0x3e9338fd	0.28754416
120	0xbededee5	-0.4352943
121	0x3e112a51	0.14176299
122	0x3db07fa4	0.086180955
123	0xbe87cdde	-0.26524252
124	0xbe813b51	-0.25240567
125	0x3db504ae	0.08838783
126	0x3ed1795c	0.40912902
127	0x3eb2c19f	0.34913346

actor_mean.weight f4 [5, 128]
0	0xbc60817c	-0.0137027465
1	0xbeb2946f	-0.3487887
2	0x3f7958b3	0.9740097
3	0xbe0586f1	-0.13039757
4	0x3f1499da	0.5804726
5	0xbc206ead	-0.009792012
6	0xbe13c9f0	-0.14432502
7	0x3f385966	0.7201141
8	0x3f1b4e03	0.6066591
9	0x3f0fb2bb	0.56132096
10	0xbe9586bd	-0.2920436
11	0xbf051f70	-0.52001095
12	0xbeb94310	-0.36183977
13	0x3dee6824	0.11640957
14	0xbe678c0c	-0.22612017
15	0xbf29f205	-0.6638492
16	0xbf26821d	-0.6504229
17	0xbb8346f0	-0.004006259
18	0xbe5da8da	-0.21646443
19	0xbdb9f26f	-0.09079444
20	0xbe6a8195	-0.22900994
21	0xbd858c64	-0.06520918
22	0xbe45f3b0	-0.1933124
23	0x3c403bd2	0.011733012
24	0xbe145329	-0.14484848
25	0x3ebd3836	0.36956948
26	0xbf80cde4	-1.0062833
27	0xbd83fc65	-0.06444625
28	0x3e65ecc8	0.22453606
29	0x3f4bb7a3	0.7957708
30	0xbf0ce398	-0.5503478
31	0x3ef84165	0.48487392
32	0x3f576bf7	0.84149116
33	0xbe638a80	-0.22220802
34	0x3f41bc61	0.7567807
35	0xbe953b79	-0.29146937
36	0xbe4bfd19	-0.19920768
37	0xbf5bce8b	-0.85862035
38	0x3cb37e2a	0.021910746
39	0xbe9904a4	-0.29886353
40	0x3f48f81d	0.7850359
41	0x3e71ffd4	0.23632747
42	0xbea843da	-0.32864267
43	0x3eb935fc	0.36174
44	0x3f24ae4f	0.64328474
45	0xbeacd4ec	-0.33756196
46	0x3f381028	0.7189965
47	0x3e35ba9c	0.17746967
48	0x3e477f3f	0.19482134
49	0x3f6a5d10	0.9154825
50	0x3eea5023	0.45764264
51	0xbf2c0805	-0.67199737
52	0xbe563c70	-0.20921493
53	0xbf22adce	-0.63546455
54	0xbb36511f	-0.0027819348
55	0xbf6d44aa	-0.926829
56	0x3f7b4fbf	0.9816856
57	0x3ebc4745	0.36773124
58	0xbd8b94eb	-0.06815513
59	0x3f0674b3	0.5252182
60	0x3e917b08	0.28414178
61	0x3f104926	0.56361616
62	0xbdf3a38f	-0.11896431
63	0xbdbc3a39	-0.091907926
64	0x3edd07f0	0.43170118
65	0xbd36468b	-0.04450087
66	0x3f60594a	0.87636244
67	0xbd7b2e11	-0.06132323
68	0x3d5e0420	0.054203153
69	0x3ebb5917	0.36591408
70	0x3eb682d2	0.35646683
71	0xbf2bf08b	-0.67163914
72	0xbe4d02b8	-0.20020568
73	0x3f1da3e9	0.6157823
74	0xbe81b2fb	-0.25331864
75	0x3d7a0219	0.061037157
76	0xbe9ea608	-0.30986047
77	0xbe6cec09	-0.23136915
78	0x3f04131e	0.5159167
79	0x3f97385b	1.1814073
80	0xbf0d2a12	-0.5514232
81	0x3f85fd6a	1.0467961
82	0x3c111da1	0.008857162
83	0xbeadfe2a	-0.33982974
84	0x3e9e3cdd	0.3090581
85	0x3f5971ad	0.8493908
86	0xbdaf9252	-0.0857283
87	0xbf88d039	-1.0688545
88	0xbf2d1368	-0.67607737
89	0xbe5cab9d	-0.2154984
90	0xbe850456	-0.2597987
91	0xbe86bf4a	-0.26317817
92	0x3d554222	0.052065022
93	0xbf4e787b	-0.8065259
94	0x3d87951c	0.06620237
95	0xbf31867e	-0.69345844
96	0x3ee42678	0.445606
97	0x3e967cb3	0.29392013
98	0xbdf0df8f	-0.117613904
99	0x3f166e24	0.5876181
100	0x3f890036	1.0703189
101	0x3ec1c291	0.37843755
102	0xbdb211fd	-0.08694837
103	0xbe610d0d	-0.21977635
104	0xbe68f857	-0.22750984
105	0x3eea46fe	0.45757288
106	0x3ef5b920	0.47992802
107	0x3d8427b3	0.064528845
108	0x3ef4e4a0	0.47830677
109	0xbeaa1654	-0.3322016
110	0xbf56359d	-0.8367556
111	0x3eb985e4	0.36234963
112	0x3d8437c4	0.06455949
113	0x3e9e3512	0.30899864
114	0x3f449efc	0.7680509
115	0x3f4bda24	0.7962973
116	0x3eefa556	0.4680583
117	0x3f37ac06	0.7174686
118	0xbeca73a3	-0.3954135
119	0x3d4d4016	0.050109945
120	0xbe4ce6da	-0.20009938
121	0xbf3c64f3	-0.73591536
122	0xbe9842d2	-0.2973848
123	0xbf1b679b	-0.60704964
124	0x3fc5adee	1.5443704
125	0x3ed15795	0.40887132
126	0xbea9f5b0	-0.33195257
127	0x3e1e1cd9	0.15440692
128	0x3f48b05f	0.7839412
129	0x3fa6e279	1.3037864
130	0x3d9617aa	0.07328732
131	0xbe9993d4	-0.29995596
132	0x3f217580	0.63069916
133	0xbe048277	-0.12940393
134	0xbf420315	-0.7578595
135	0xbff9f3be	-1.9527509
136	0xbe906128	-0.28199124
137	0xbfa9e3ae	-1.3272607
138	0xbe5890d5	-0.21148999
139	0xbf00b87e	-0.5028151
140	0xbcd8d9a1	-0.026470961
141	0xbec7f9d7	-0.390578
142	0xbf680e11	-0.90646464
143	0x3d9c46da	0.07630701
144	0xbbf12c9a	-0.0073600532
145	0x3f0fd8c1	0.56190115
146	0x3eb018a7	0.34393808
147	0x3f538e53	0.82639045
148	0xbe71387b	-0.23556702
149	0x3f4c13e4	0.7971785
150	0xbc7af013	-0.015316027
151	0xbee5a159	-0.4484966
152	0x3eac2c6e	0.33627647
153	0xbe879460	-0.2648039
154	0xbf0b4c0b	-0.5441291
155	0xbeb2d6e8	-0.34929585
156	0x3f0bbb89	0.5458303
157	0xbe62a6ef	-0.22133993
158	0xbe248966	-0.16068038
159	0xbeabba4b	-0.33540568
160	0xbeb03ea2	-0.34422785
161	0x3f1bbc0f	0.6083383
162	0x3fbf2ec6	1.4936149
163	0xbeac0367	-0.33596346
164	0xbe07bcfe	-0.13255689
165	0x3f27113d	0.6526068
166	0xbf61bcb1	-0.88178545
167	0xbf157348	-0.5837903
168	0xbf035d8a	-0.51314604
169	0xbdc46e38	-0.09591335
170	0x3e42207b	0.18957703
171	0xbf2901c9	-0.6601835
172	0x3c62f5e0	0.0138525665
173	0xbf089b7d	-0.53362256
174	0x3e1a81d8	0.15088594
175	0xbf1fb87a	-0.62390864
176	0xbf9da1d8	-1.2315016
177	0xbe9a6da7	-0.30161783
178	0xbe51b12f	-0.20477746
179	0x3e955a2c	0.29170358
180	0x3ed1be3a	0.40965444
181	0x3db1fba2	0.08690573
182	0x3eee91b2	0.46595532
183	0x3e0ac16b	0.13550346
184	0xbf1c5bb3	-0.6107742
185	0xbecab3fe	-0.39590448
186	0x3eeb9c66	0.4601776
187	0xbf18da0c	-0.59707713
188	0xbf5225e9	-0.82089096
189	0x3f36c3a0	0.7139225
190	0xbe01aba3	-0.1266313
191	0xbeb00005	-0.34375015
192	0x3d3641d5	0.044496376
193	0xbd464636	-0.048406802
194	0xbc8c88a9	-0.017155008
195	0x3f61bc8a	0.8817831
196	0x3eebdb05	0.46065536
197	0x3f16c860	0.588995
198	0xbe91b490	-0.2845807
199	0x3f0bb66a	0.54575217
200	0x3f922c36	1.1419742
201	0xbed9b0d9	-0.42517737
202	0xbf57541d	-0.8411272
203	0xbf0fe103	-0.56202716
204	0xbed7ec9e	-0.42172712
205	0xbe20aee2	-0.15691712
206	0xbec1f48a	-0.3788188
207	0xbde08778	-0.109633386
208	0x3e4073fc	0.18794245
209	0x3f261638	0.64877653
210	0xbd86c395	-0.06580273
211	0xbee45551	-0.4459634
212	0x3ecbef91	0.39831212
213	0x3ec57636	0.3856675
214	0x3e92ec45	0.28695884
215	0xbf4e44cb	-0.8057372
216	0xbedda284	-0.43288052
217	0x3f0ce2dc	0.5503366
218	0xbed6717d	-0.4188346
219	0x3fa38e27	1.2777756
220	0xbee91bf9	-0.45529154
221	0x3f1b664f	0.60702986
222	0x3f446f68	0.7673249
223	0xbe86fafa	-0.26363355
224	0x3e510052	0.20410278
225	0x3db9b5d0	0.09067881
226	0x3f05abe3	0.52215403
227	0x3e3bb9d1	0.18332602
228	0x3ec212f6	0.3790509
229	0xbf7ba483	-0.982979
230	0xbe177eef	-0.14794515
231	0xbf85184f	-1.0398043
232	0x3ec60dae	0.38682312
233	0x3f92bb2b	1.1463369
234	0x3f84fdeb	1.038999
235	0xbdeb7c01	-0.11498261
236	0x3f02785e	0.50964916
237	0x3e1514c9	0.1455871
238	0x3e475a82	0.1946812
239	0xbe44d22b	-0.19220798
240	0xbe4ace14	-0.19805175
241	0xbebc7bb5	-0.3681313
242	0x3ee01351	0.43764737
243	0xbed20acb	-0.4102386
244	0xbf45f63a	-0.77328837
245	0x3dc9bbef	0.098502986
246	0xbef1b58d	-0.47208825
247	0xbf403af2	-0.75089943
248	0x3e4bcb38	0.1990174
249	0x3e90e860	0.28302288
250	0xbf562026	-0.83642805
251	0xbe8dc618	-0.27690196
252	0xbf2130cf	-0.629651
253	0xbfc496b5	-1.5358492
254	0xbf69a994	-0.9127438
255	0xbe298f2c	-0.16558522

actor_mean.bias f4 [5]
0	0xbd1d9e6e	-0.03848117
1	0xbcd5f6c9	-0.026118653
2	0xbe8638ca	-0.26215202
3	0xbe93ae0f	-0.28843734
4	0x3d21a723	0.039466035

critic.weight f4 [1, 128]
0	0x3f857330	1.0425777
1	0xbffa20d2	-1.9541266
2	0x3faf8b73	1.3714432
3	0xbfd3cd40	-1.6547012
4	0xbfb9fc1d	-1.4530064
5	0x3fd960b1	1.6982633
6	0xbfb03c9f	-1.37685
7	0xbfbd8019	-1.4804717
8	0xbf9d9cb7	-1.231345
9	0xbf813c0e	-1.0096452
10	0x3ff308bf	1.8987044
11	0x3fe72519	1.8058196
12	0xbff56ee1	-1.9174463
13	0x3f96abf5	1.1771227
14	0xc005d299	-2.0909789
15	0xbf569438	-0.83819914
16	0xc002d11c	-2.044013
17	0xbfcefa0a	-1.6170056
18	0x3f7f8378	0.9980998
19	0x3f72ffc9	0.9492155
20	0xbfbea6c4	-1.4894643
21	0x3f377a64	0.7167113
22	0xbf8ee7c6	-1.1164482
23	0xbf838621	-1.0275308
24	0xbfc5e3a4	-1.5460095
25	0x3fe18af6	1.7620533
26	0xbfda2e04	-1.7045293
27	0xbff13853	-1.8845314
28	0x400d6b63	2.2096794
29	0xbf87ec0e	-1.0618913
30	0xbfc5e13b	-1.545936
31	0xbf8b5570	-1.0885448
32	0x3f62ef8e	0.8864678
33	0xbfa5b5ae	-1.2946069
34	0xc000be1d	-2.0116036
35	0xbff3353f	-1.9000624
36	0xbf8a78ba	-1.0818093
37	0xbf5c82cf	-0.861371
38	0xbf597a53	-0.84952277
39	0xbf95b18b	-1.1694807
40	0x3fe2f32b	1.7730459
41	0xbfacd3c7	-1.3502129
42	0x3faf306b	1.3686651
43	0xbfb51e03	-1.4149784
44	0xbf9be44f	-1.2179049
45	0x3f712a9a	0.9420563
46	0x3f988088	1.1914225
47	0xbf8c37b1	-1.0954496
48	0xbf996f22	-1.198704
49	0x40103335	2.2531254
50	0xbfa02255	-1.2510477
51	0xbf992520	-1.1964455
52	0x3fc89fb0	1.5673733
53	0xbfea6ce1	-1.8314477
54	0x3f3a95d6	0.7288488
55	0xbf823796	-1.0173213
56	0x3fbf3865	1.4939085
57	0x3face8de	1.3508565
58	0x3f8d9acc	1.1062865
59	0x3fb3c7de	1.404537
60	0xbf9b8032	-1.2148497
61	0x400d3f18	2.206976
62	0x3f923eec	1.1425452
63	0xbf80fd50	-1.0077305
64	0xbf7ca783	-0.986931
65	0xbf43e79b	-0.76525277
66	0x40012977	2.0181558
67	0xbfe3b0d0	-1.7788334
68	0xbf610827	-0.87903064
69	0xbf9433fb	-1.1578363
70	0x3fa64773	1.2990555
71	0x3fc88799	1.5666381
72	0x3f7d0c34	0.98846745
73	0xbfad9eef	-1.3564128
74	0xbfe117ea	-1.7585423
75	0xbf81139c	-1.0084109
76	0x3fef4986	1.8694313
77	0xc015ff53	-2.3437088
78	0x3f9d874a	1.2306912
79	0x3f95d580	1.170578
80	0x3fd6f5da	1.6793778
81	0xbfd1b9c8	-1.6384821
82	0xbf6eb966	-0.93251646
83	0x3fa6a9ab	1.3020529
84	0xbfbb61fb	-1.4639276
85	0xbfc6c1ab	-1.5527853
86	0x3f84031e	1.0313451
87	0x3fcd0f5a	1.602031
88	0xbfa4277d	-1.2824551
89	0x3f80e58d	1.0070053
90	0xbfdce6f5	-1.7257982
91	0x3f51ec43	0.8200113
92	0x3fefd73e	1.8737562
93	0xbfa447f1	-1.2834455
94	0x3fe63ccb	1.7987303
95	0x40104aea	2.2545724
96	0x3f4a7ece	0.7909974
97	0xbf8284bf	-1.0196761
98	0xbfd4915c	-1.660686
99	0x400f4d99	2.2391112
100	0xbfcbc59e	-1.5919683
101	0xbf986ae4	-1.190762
102	0xbf714632	-0.94247735
103	0x3fb9bad3	1.4510139
104	0xbfb70150	-1.4297276
105	0xbfd0a2cb	-1.629968
106	0x3fdd9ac9	1.7312862
107	0x3fb314ee	1.3990762
108	0x4026cc28	2.6062107
109	0x3fc570a0	1.5424995
110	0x3fe40e59	1.7816879
111	0xbfd8d409	-1.6939708
112	0x3fcae4e2	1.58511
113	0x3fd7ae3b	1.6850046
114	0xbfa1acb0	-1.2630825
115	0x3fd85fa3	1.6904186
116	0xbff88054	-1.9414163
117	0x3f9504a7	1.1642045
118	0xbf6995e9	-0.9124437
119	0x3fad0109	1.3515941
120	0xbfc396cc	-1.5280395
121	0x3fd00ac8	1.625329
122	0xbffd09a0	-1.9768562
123	0xbf8020d3	-1.0010017
124	0x3fc4fe97	1.5390195
125	0x401b6f21	2.4286578
126	0x3f98c864	1.1936154
127	0x3fc03fbd	1.5019451

exp_avg f4 [5]
0	0xba8c6f77	-0.0010714371
1	0xb9acb8d3	-0.000329441
2	0x3a440bf6	0.0007478589
3	0xb8763087	-5.8696165e-05
4	0xb9132359	-0.0001403218

exp_avg_sq f4 [5]
0	0x36eefb37	7.122198e-06
1	0x36b38564	5.3501444e-06
2	0x36b7b5a0	5.474969e-06
3	0x36dbd0e0	6.551025e-06
4	0x36b375a5	5.3483113e-06

exp_avg f4 [128, 20]
0	0x3aa379e2	0.0012472237
1	0x3b5fdfe9	0.003416056
2	0xbb780462	-0.003784441
3	0xbac80c95	-0.0015262539
4	0x3b81e0a8	0.0039635487
5	0xbabf16e8	-0.001457897
6	0xbaa588b1	-0.0012629238
7	0xba067571	-0.00051291945
8	0xbabbf05e	-0.0014338603
9	0xba8a78fa	-0.0010564618
10	0x391156f2	0.00013860667
11	0xb9b63a0c	-0.00034756993
12	0xb8f5e42a	-0.00011725009
13	0xb6fb9db2	-7.498741e-06
14	0x39335cd3	0.0001710535
15	0x3aa379e2	0.0012472237
16	0x3b5fdfe9	0.003416056
17	0xbb780462	-0.003784441
18	0xbac80c95	-0.0015262539
19	0x3b81e0a8	0.0039635487
20	0x3b795b7b	0.0038048911
21	0xbb1593b4	-0.0022823634
22	0xbba0228c	-0.004886931
23	0xbc055c7b	-0.008139725
24	0x3c147705	0.00906158
25	0x3b7e777f	0.003882855
26	0x3a0749b1	0.0005160822
27	0xbb3ec27c	-0.002910762
28	0x3a905225	0.0011010809
29	0x3921da5b	0.000154355
30	0x3ba292f1	0.0049613644
31	0x3bc12903	0.0058947816
32	0x3b8df5c3	0.0043322756
33	0x3b67f2f4	0.0035392614
34	0x3b71c22c	0.0036889417
35	0x3b795b7b	0.0038048911
36	0xbb1593b4	-0.0022823634
37	0xbba0228c	-0.004886931
38	0xbc055c7b	-0.008139725
39	0x3c147705	0.00906158
40	0x3b7d21db	0.0038624916
41	0x3bb78cbc	0.0056014936
42	0x3b74bedd	0.0037345209
43	0xbb09b7b7	-0.0021014044
44	0x3b8b52af	0.0042518
45	0xba5758a5	-0.0008214808
46	0xba800d54	-0.0009769597
47	0xba917c9d	-0.001109976
48	0xbab132ed	-0.0013519205
49	0xbaa41d53	-0.0012520946
50	0x3b2aacca	0.0026042932
51	0x3b0f10e1	0.002183013
52	0x3b052871	0.0020318294
53	0x3afa0244	0.0019074162
54	0x3ad9d6c4	0.0016619791
55	0x3b7d21db	0.0038624916
56	0x3bb78cbc	0.0056014936
57	0x3b74bedd	0.0037345209
58	0xbb09b7b7	-0.0021014044
59	0x3b8b52af	0.0042518
60	0xbbfabb3d	-0.007651715
61	0x3b495a90	0.0030724145
62	0xbb8a8fde	-0.004228576
63	0x39eb436b	0.00044872923
64	0xbb1840e3	-0.0023232035
65	0x39575dfb	0.00020539008
66	0x3a682e89	0.0008857032
67	0x3ac187cf	0.0014765206
68	0x3a096f5d	0.00052427297
69	0x3a0696f5	0.00051341887
70	0xbbad5205	-0.0052893185
71	0xbb9c5436	-0.004770781
72	0xbb85523d	-0.0040686415
73	0xbb875d66	-0.004131007
74	0xbb54e294	-0.0032483684
75	0xbbfabb3d	-0.007651715
76	0x3b495a90	0.0030724145
77	0xbb8a8fde	-0.004228576
78	0x39eb436b	0.00044872923
79	0xbb1840e3	-0.0023232035
80	0x3874dc93	5.837956e-05
81	0xbafa4d0a	-0.0019096446
82	0x3beb0bbe	0.0071730306
83	0x3b099bb2	0.0020997343
84	0x3b4e2e43	0.003146068
85	0x3b3b0028	0.0028534029
86	0x3abfeb02	0.0014642181
87	0xb9e787f3	-0.00044161043
88	0x3b005db9	0.0019587113
89	0x3aa401bf	0.0012512727
90	0xba992bfd	-0.0011686083
91	0xb94ec8d8	-0.00019720511
92	0xba0e16f8	-0.0005420293
93	0xba77e30a	-0.00094561337
94	0xb9ba9789	-0.00035589587
95	0x3874dc93	5.837956e-05
96	0xbafa4d0a	-0.0019096446
97	0x3beb0bbe	0.0071730306
98	0x3b099bb2	0.0020997343
99	0x3b4e2e43	0.003146068
100	0x3b5dc619	0.003384
101	0x3929291b	0.00016132409
102	0x3b88b330	0.0041717514
103	0xba91e7b5	-0.0011131676
104	0xb9ebbd47	-0.00044963715
105	0xbab3c7ab	-0.0013716122
106	0x3952ed3f	0.00020115542
107	0x3abcdceb	0.00144091
108	0xbad7b25a	-0.0016456351
109	0x385a7f84	5.209401e-05
110	0xbbb1a2a5	-0.005421
111	0xbbb9cd19	-0.0056702015
112	0xbb97b8cb	-0.0046301833
113	0xbb80a186	-0.003925505
114	0xbb5006a2	-0.0031742235
115	0x3b5dc619	0.003384
116	0x3929291b	0.00016132409
117	0x3b88b330	0.0041717514
118	0xba91e7b5	-0.0011131676
119	0xb9ebbd47	-0.00044963715
120	0xbb88eaa8	-0.004178364
121	0x3b7fe20b	0.0039044644
122	0xba89c585	-0.0010511136
123	0xba00a9c5	-0.000490811
124	0xbb2837ae	-0.0025667953
125	0xbac5c296	-0.0015087898
126	0xba5c26ed	-0.00083981344
127	0xb73d570d	-1.1285546e-05
128	0xb9c14707	-0.00036864748
129	0xba1e4f17	-0.0006039007
130	0x3b2f228e	0.0026723477
131	0x3b0b0875	0.0021214758
132	0x3b07d7e8	0.0020728055
133	0x3b07497c	0.0020643165
134	0x3a99e311	0.0011740645
135	0xbb88eaa8	-0.004178364
136	0x3b7fe20b	0.0039044644
137	0xba89c585	-0.0010511136
138	0xba00a9c5	-0.000490811
139	0xbb2837ae	-0.0025667953
140	0x3b1f8db0	0.0024345927
141	0xbb4a4cd7	-0.0030868554
142	0xbba263a7	-0.004955727
143	0xbb3f314a	-0.0029173666
144	0x3b8f1cea	0.0043674605
145	0x3ab9f1a5	0.0014186396
146	0xb9e2f7b4	-0.00043290632
147	0xbb379075	-0.0028009687
148	0x399df479	0.0003012752
149	0xba866636	-0.001025385
150	0x3be89ca0	0.0070987493
151	0x3befe4c9	0.0073209745
152	0x3bc2c545	0.0059439265
153	0x3badc290	0.0053027347
154	0x3b96001d	0.00457765
155	0x3b1f8db0	0.0024345927
156	0xbb4a4cd7	-0.0030868554
157	0xbba263a7	-0.004955727
158	0xbb3f314a	-0.0029173666
159	0x3b8f1cea	0.0043674605
160	0xbb1b62e1	-0.002371006
161	0x3a250337	0.00062947295
162	0x3a42fd2b	0.00074382377
163	0xb9e656a5	-0.00043933574
164	0xbaa5fe45	-0.0012664279
165	0x3b132e38	0.0022457968
166	0x39332476	0.00017084353
167	0xba2cbbe6	-0.00065892783
168	0x3ade8592	0.0016977063
169	0x3a48d79a	0.00076615217
170	0x3b0c9a23	0.0021454177
171	0x3b2ffee7	0.0026854814
172	0x3afb654c	0.0019179969
173	0x3ac1a45a	0.0014773712
174	0x3ab5da68	0.0013874294
175	0xbb1b62e1	-0.002371006
176	0x3a250337	0.00062947295
177	0x3a42fd2b	0.00074382377
178	0xb9e656a5	-0.00043933574
179	0xbaa5fe45	-0.0012664279
180	0x3a78d570	0.0009492254
181	0x3adb0bc1	0.0016711877
182	0xbb37f8e9	-0.0028071946
183	0xbb00daaa	-0.0019661584
184	0xbb527df3	-0.0032118529
185	0xbb074a61	-0.0020643699
186	0xba1e6f7a	-0.0006043833
187	0x3b04c48f	0.002025876
188	0xba82d809	-0.0009982596
189	0xb97d0427	-0.00024129507
190	0xbb6019c1	-0.0034195038
191	0xbb8721d7	-0.004123907
192	0xbb426294	-0.0029660808
193	0xbb2363bd	-0.0024931275
194	0xbb1ad9c5	-0.0023628336
195	0x3a78d570	0.0009492254
196	0x3adb0bc1	0.0016711877
197	0xbb37f8e9	-0.0028071946
198	0xbb00daaa	-0.0019661584
199	0xbb527df3	-0.0032118529
200	0x3b58c994	0.0033079134
201	0x3ba4e837	0.005032565
202	0x3b2f0f9d	0.0026712187
203	0xbacafb6e	-0.0015486309
204	0x3af3f742	0.0018613117
205	0xba0f1a18	-0.00054589054
206	0xba2e3bcf	-0.00066464854
207	0xba43280f	-0.0007444629
208	0xba403892	-0.00073326484
209	0xba3677f7	-0.0006960625
210	0x3b20d295	0.002453958
211	0x3b1556af	0.0022787263
212	0x3b024d78	0.00198826
213	0x3af94e77	0.0019020577
214	0x3acbaddb	0.0015539484
215	0x3b58c994	0.0033079134
216	0x3ba4e837	0.005032565
217	0x3b2f0f9d	0.0026712187
218	0xbacafb6e	-0.0015486309
219	0x3af3f742	0.0018613117
220	0xbb012302	-0.0019704704
221	0x3b6975b5	0.0035623137
222	0xbb7cf77c	-0.003859966
223	0xbb6b320e	-0.003588799
224	0x3ac54789	0.0015051226
225	0xba21633c	-0.00061564497
226	0xba43e0fb	-0.00074721844
227	0xba49b14b	-0.000769396
228	0xba22a32e	-0.0006204125
229	0xba5497c4	-0.0008109773
230	0x3b5eec16	0.003401523
231	0x3b449628	0.0029996727
232	0x3b2ebb7c	0.0026662042
233	0x3b2463fa	0.0025084005
234	0x3aff7509	0.0019489835
235	0xbb012302	-0.0019704704
236	0x3b6975b5	0.0035623137
237	0xbb7cf77c	-0.003859966
238	0xbb6b320e	-0.003588799
239	0x3ac54789	0.0015051226
240	0xb97b8b82	-0.00023989196
241	0xba0f0cf4	-0.0005456947
242	0x3ac147e3	0.0014746155
243	0x3a2c121a	0.00065639766
244	0xbb2e4c05	-0.0026595604
245	0x390356f7	0.0001252553
246	0xb9527647	-0.00020071222
247	0xba0cefbb	-0.0005376299
248	0x398d8aa5	0.00026996914
249	0xb988fe32	-0.00026129332
250	0x3b519b3f	0.0031983403
251	0x3b4b69e7	0.0031038465
252	0x3b35d221	0.0027743655
253	0x3b1bf7c3	0.00237988
254	0x3afb08ff	0.0019152461
255	0xb97b8b82	-0.00023989196

exp_avg_sq f4 [128, 20]
0	0x389baf00	7.423572e-05
1	0x38a61019	7.918495e-05
2	0x38baf43c	8.914663e-05
3	0x3883675d	6.26582e-05
4	0x38ebd3d5	0.0001124513
5	0x36dcb0fd	6.577115e-06
6	0x36914edc	4.330517e-06
7	0x362c30c1	2.5658376e-06
8	0x36455800	2.940651e-06
9	0x360e7fa4	2.1233946e-06
10	0x3873568c	5.8016318e-05
11	0x3871912d	5.7594083e-05
12	0x384c4f37	4.8711165e-05
13	0x381ab5aa	3.688565e-05
14	0x37dfede5	2.669445e-05
15	0x389baf00	7.423572e-05
16	0x38a61019	7.918495e-05
17	0x38baf43c	8.914663e-05
18	0x3883675d	6.26582e-05
19	0x38ebd3d5	0.0001124513
20	0x38ab9dbc	8.183296e-05
21	0x38a54691	7.880957e-05
22	0x3872aeaf	5.7859983e-05
23	0x38b9e582	8.8642366e-05
24	0x38c135fc	9.2130125e-05
25	0x36d35c57	6.29904e-06
26	0x3674296e	3.6382949e-06
27	0x3688be6d	4.0752843e-06
28	0x369283e3	4.3664927e-06
29	0x3645cb55	2.9473642e-06
30	0x388093be	6.131035e-05
31	0x3875cc9b	5.8603106e-05
32	0x383fd185	4.573308e-05
33	0x38141fbe	3.5315512e-05
34	0x37ec4c43	2.8168904e-05
35	0x38ab9dbc	8.183296e-05
36	0x38a54691	7.880957e-05
37	0x3872aeaf	5.7859983e-05
38	0x38b9e582	8.8642366e-05
39	0x38c135fc	9.2130125e-05
40	0x3881d23c	6.1903585e-05
41	0x3868aeea	5.547601e-05
42	0x3840cf79	4.596959e-05
43	0x384fc419	4.9535276e-05
44	0x3851362a	4.9879927e-05
45	0x3657f233	3.2178475e-06
46	0x364ce91a	3.0534052e-06
47	0x360e1d5f	2.1176745e-06
48	0x362a186c	2.534619e-06
49	0x35d99810	1.6212016e-06
50	0x38165bdd	3.584834e-05
51	0x3807e7b7	3.240231e-05
52	0x37e323d5	2.7077194e-05
53	0x37beef25	2.2761125e-05
54	0x378c22a5	1.6705433e-05
55	0x3881d23c	6.1903585e-05
56	0x3868aeea	5.547601e-05
57	0x3840cf79	4.596959e-05
58	0x384fc419	4.9535276e-05
59	0x3851362a	4.9879927e-05
60	0x39566109	0.00020444779
61	0x396b4b7e	0.0002243947
62	0x3933d199	0.00017148851
63	0x393b1a85	0.00017843589
64	0x39533a51	0.00020144253
65	0x371d5008	9.376563e-06
66	0x36af8464	5.2308187e-06
67	0x3677c983	3.6923163e-06
68	0x36ccf74a	6.108462e-06
69	0x369f438a	4.746432e-06
70	0x393f8f14	0.0001826848
71	0x39298a67	0.00016168655
72	0x391573e2	0.00014252917
73	0x38f08954	0.00011469671
74	0x389fc391	7.618138e-05
75	0x39566109	0.00020444779
76	0x396b4b7e	0.0002243947
77	0x3933d199	0.00017148851
78	0x393b1a85	0.00017843589
79	0x39533a51	0.00020144253
80	0x386792a7	5.5211272e-05
81	0x387f9fec	6.0945677e-05
82	0x38996098	7.3136005e-05
83	0x386dd770	5.6705845e-05
84	0x38a372b4	7.793811e-05
85	0x36baf2b2	5.5714854e-06
86	0x368b406a	4.1500216e-06
87	0x361ed2a4	2.3666444e-06
88	0x36800ee0	3.816429e-06
89	0x3606b124	2.0070665e-06
90	0x38569983	5.1164545e-05
91	0x384b22e5	4.843147e-05
92	0x3824deda	3.9308194e-05
93	0x38033029	3.1277687e-05
94	0x37c6ab4f	2.3683211e-05
95	0x386792a7	5.5211272e-05
96	0x387f9fec	6.0945677e-05
97	0x38996098	7.3136005e-05
98	0x386dd770	5.6705845e-05
99	0x38a372b4	7.793811e-05
100	0x389557ca	7.121226e-05
101	0x38a71485	7.9670026e-05
102	0x389addbc	7.3845935e-05
103	0x38113030	3.4615572e-05
104	0x3894d7be	7.097375e-05
105	0x368e329a	4.2378206e-06
106	0x36223a1c	2.4173705e-06
107	0x36300e8b	2.6234509e-06
108	0x3622d208	2.4262135e-06
109	0x3610fa1d	2.1603257e-06
110	0x384a1953	4.8184138e-05
111	0x3841bf17	4.6192752e-05
112	0x381c93c1	3.7330905e-05
113	0x37fddf64	3.0263975e-05
114	0x37aeb8bf	2.0828445e-05
115	0x389557ca	7.121226e-05
116	0x38a71485	7.9670026e-05
117	0x389addbc	7.3845935e-05
118	0x38113030	3.4615572e-05
119	0x3894d7be	7.097375e-05
120	0x383e77a6	4.541096e-05
121	0x382fe273	4.193415e-05
122	0x384bb280	4.8565213e-05
123	0x382019b4	3.817091e-05
124	0x3848a475	4.783688e-05
125	0x360aac04	2.0663729e-06
126	0x35a45a7f	1.224529e-06
127	0x35b5ecbb	1.3554449e-06
128	0x35be410e	1.4175037e-06
129	0x355e443d	8.2800744e-07
130	0x38095b1b	3.2748194e-05
131	0x37f7f658	2.9559407e-05
132	0x37c99014	2.4028159e-05
133	0x37a30c61	1.9436879e-05
134	0x377242bc	1.4439862e-05
135	0x383e77a6	4.541096e-05
136	0x382fe273	4.193415e-05
137	0x384bb280	4.8565213e-05
138	0x382019b4	3.817091e-05
139	0x3848a475	4.783688e-05
140	0x38976533	7.219091e-05
141	0x38ae0937	8.298683e-05
142	0x38bc146a	8.968341e-05
143	0x38b45164	8.598229e-05
144	0x38c4691f	9.3655886e-05
145	0x36f861dc	7.4023683e-06
146	0x3659b82c	3.2442722e-06
147	0x3697ae6c	4.520456e-06
148	0x3628066b	2.5037687e-06
149	0x364f2474	3.0866622e-06
150	0x389daad8	7.5181655e-05
151	0x389f01c6	7.582041e-05
152	0x38824261	6.211247e-05
153	0x383b4482	4.4648077e-05
154	0x380a6f4c	3.3005417e-05
155	0x38976533	7.219091e-05
156	0x38ae0937	8.298683e-05
157	0x38bc146a	8.968341e-05
158	0x38b45164	8.598229e-05
159	0x38c4691f	9.3655886e-05
160	0x38cb5df6	9.697296e-05
161	0x38ce9f6c	9.85254e-05
162	0x38be9b1f	9.0887996e-05
163	0x38ad8dfb	8.275729e-05
164	0x38a0dd89	7.670659e-05
165	0x36c2c2e6	5.8043397e-06
166	0x3677e0b3	3.693666e-06
167	0x362d3577	2.581013e-06
168	0x368d477a	4.2104484e-06
169	0x3636590a	2.717194e-06
170	0x389e5180	7.549208e-05
171	0x388fb824	6.85307e-05
172	0x386ba496	5.618165e-05
173	0x383eb3b7	4.5466903e-05
174	0x380ff9de	3.4326564e-05
175	0x38cb5df6	9.697296e-05
176	0x38ce9f6c	9.85254e-05
177	0x38be9b1f	9.0887996e-05
178	0x38ad8dfb	8.275729e-05
179	0x38a0dd89	7.670659e-05
180	0x3895cf25	7.143457e-05
181	0x38a0498b	7.643093e-05
182	0x38b8d82f	8.814071e-05
183	0x38aa6288	8.1245846e-05
184	0x388fbaac	6.853542e-05
185	0x36c5ffbf	5.9008303e-06
186	0x3677740f	3.6873423e-06
187	0x3696bbf0	4.492227e-06
188	0x3644c075	2.93183e-06
189	0x363b3825	2.7897852e-06
190	0x386b30f7	5.6073968e-05
191	0x385c767f	5.2562445e-05
192	0x3838a7a9	4.4025164e-05
193	0x381381c9	3.5168403e-05
194	0x37cf0736	2.467968e-05
195	0x3895cf25	7.143457e-05
196	0x38a0498b	7.643093e-05
197	0x38b8d82f	8.814071e-05
198	0x38aa6288	8.1245846e-05
199	0x388fbaac	6.853542e-05
200	0x37d0b629	2.4880357e-05
201	0x37cd096e	2.4442295e-05
202	0x37686315	1.3851347e-05
203	0x37ba602b	2.221771e-05
204	0x37e35d74	2.7104026e-05
205	0x358d83cc	1.0543677e-06
206	0x3577d51d	9.232479e-07
207	0x354e4c9f	7.685248e-07
208	0x357c2cb4	9.3942367e-07
209	0x35112c66	5.408132e-07
210	0x37700008	1.4305122e-05
211	0x376152ff	1.3430369e-05
212	0x373c0c72	1.1208571e-05
213	0x3714ba24	8.864827e-06
214	0x36cfd98b	6.194406e-06
215	0x37d0b629	2.4880357e-05
216	0x37cd096e	2.4442295e-05
217	0x37686315	1.3851347e-05
218	0x37ba602b	2.221771e-05
219	0x37e35d74	2.7104026e-05
220	0x37bd129e	2.2539225e-05
221	0x380056d7	3.0598454e-05
222	0x38029341	3.1131556e-05
223	0x3800934f	3.065477e-05
224	0x37c8cf25	2.3938317e-05
225	0x35b06a75	1.3144005e-06
226	0x358eb8ec	1.0633644e-06
227	0x3577d579	9.2325314e-07
228	0x35bcdc1a	1.407115e-06
229	0x354e7c7e	7.692214e-07
230	0x379716f1	1.8011286e-05
231	0x378d8b3c	1.6873346e-05
232	0x3768719c	1.3854729e-05
233	0x37363d31	1.0862293e-05
234	0x370bcd26	8.3328105e-06
235	0x37bd129e	2.2539225e-05
236	0x380056d7	3.0598454e-05
237	0x38029341	3.1131556e-05
238	0x3800934f	3.065477e-05
239	0x37c8cf25	2.3938317e-05
240	0x37b0484c	2.10145e-05
241	0x37a43ea6	1.9579496e-05
242	0x37db675a	2.6154961e-05
243	0x37a7abd5	1.9987967e-05
244	0x37ac832c	2.056508e-05
245	0x357be5c0	9.3839117e-07
246	0x35110826	5.4028567e-07
247	0x34fd5a42	4.7190593e-07
248	0x350a2646	5.14647e-07
249	0x349402eb	2.756927e-07
250	0x3741b724	1.1546337e-05
251	0x37391ac4	1.1033091e-05
252	0x371a2282	9.18715e-06
253	0x36f128fc	7.187131e-06
254	0x36ad2e84	5.161217e-06
255	0x37b0484c	2.10145e-05

exp_avg f4 [128]
0	0x392e1f44	0.0001660558
1	0x3bf7c366	0.007561135
2	0x3b6dbf19	0.0036277233
3	0xbbe562ae	-0.007000289
4	0xba992c91	-0.0011686255
5	0xbbece9d3	-0.0072300225
6	0x3b474122	0.0030403812
7	0x3c21f7c8	0.009885736
8	0x3b3f9c1f	0.0029237343
9	0xbba5bb71	-0.005057745
10	0x3b647d8b	0.0034864869
11	0x3b92deeb	0.0044821403
12	0x3b8d0975	0.004304106
13	0xbb99bde0	-0.0046918243
14	0xba7b23df	-0.00095802353
15	0xb9decc2e	-0.00042495265
16	0xba5a2b75	-0.00083225156
17	0x3a7ed49f	0.0009721014
18	0xbb879125	-0.0041371756
19	0x39909c0b	0.0002758208
20	0xbba4e508	-0.0050321855
21	0x3b3679c0	0.0027843565
22	0x3b58c424	0.0033075893
23	0xbb29e2ff	-0.0025922654
24	0x3b9eec3f	0.00484994
25	0x3aac41e3	0.0013142194
26	0x3c85e55d	0.01634472
27	0xbb4a175c	-0.0030836677
28	0xbad8cdb8	-0.0016540801
29	0xba117c10	-0.0005549798
30	0x3bafb139	0.0053617028
31	0xb78f500d	-1.7084205e-05
32	0xbba1d36d	-0.004938534
33	0xbaeffa1a	-0.0018308789
34	0x3b900140	0.0043946803
35	0xbb11e620	-0.002226241
36	0xbc45e646	-0.012078827
37	0xba90e109	-0.0011053394
38	0x3a8a4ddd	0.001055177
39	0x3c11af43	0.008891883
40	0x3b809194	0.0039236043
41	0x3b81b7d3	0.003958681
42	0x3b35fb23	0.0027768097
43	0xbbfada56	-0.007655422
44	0xbb8d0770	-0.004303865
45	0x3a6e93cc	0.0009101003
46	0x3af3cd37	0.0018600588
47	0xbb6adf40	-0.0035838634
48	0x3bf5b857	0.0074987817
49	0x3b507678	0.0031808894
50	0x3bd525a3	0.006504731
51	0xbaaa379d	-0.0012986545
52	0x3a036b11	0.00050132076
53	0x3a0c0f4f	0.00053428573
54	0x3b12c51a	0.0022395314
55	0x3c157520	0.009122163
56	0xbae5327e	-0.0017486361
57	0x3a08f5cd	0.00052246155
58	0xb9fb3df1	-0.000479206
59	0x3c077b99	0.008269214
60	0xbb9c8758	-0.0047768764
61	0xbbe933cf	-0.007116772
62	0xbad2ea54	-0.0016091564
63	0xbc0befac	-0.008541029
64	0x3c3127a4	0.010812674
65	0x3b81e471	0.003964
66	0xba33c7d1	-0.0006858083
67	0x3afae65d	0.001914214
68	0xbabebc57	-0.0014551979
69	0x3bf52142	0.0074807713
70	0x3b67e014	0.0035381364
71	0x3aef498c	0.0018256172
72	0x3b1ad070	0.0023622774
73	0x3b07d518	0.002072638
74	0x3b0481e5	0.0020219025
75	0xbb740ff7	-0.003724096
76	0xbb629b6e	-0.0034577507
77	0xbae1de92	-0.0017232469
78	0x3bb5deee	0.005550257
79	0xbb708bdd	-0.0036704459
80	0xbb2a926b	-0.0026027213
81	0x3c822f0b	0.015891572
82	0xbb334a07	-0.0027357356
83	0x3ad6ed37	0.00163976
84	0x3b2d7f0a	0.0026473426
85	0x3b0ae51c	0.0021193689
86	0xbb81e67b	-0.003964243
87	0xba0600e2	-0.0005111826
88	0x3abd2f62	0.0014433677
89	0x3b35b40c	0.0027725725
90	0xbc87c78b	-0.016574642
91	0x3bf66dba	0.0075204046
92	0x3a7c6929	0.0009628707
93	0xbbdc30fe	-0.0067197075
94	0x3b23110f	0.0024881994
95	0xbbd7b759	-0.006583136
96	0x3a96f602	0.0011517408
97	0x3b014576	0.001972524
98	0xb9ab28f3	-0.0003264617
99	0xbc003c79	-0.007826918
100	0xbbded14b	-0.006799852
101	0x3b69b4f8	0.0035660844
102	0xb9edff7c	-0.00045394513
103	0x3b8a798e	0.004225916
104	0xbb307ca7	-0.0026929767
105	0xb9d45949	-0.00040502314
106	0x3b740deb	0.003723974
107	0x3a095482	0.0005238728
108	0xbc3dd36c	-0.011586051
109	0xbbffc567	-0.0078055146
110	0x3aa3520b	0.0012460364
111	0xbb864023	-0.004097001
112	0x3c3ce226	0.011528527
113	0xbb5c5e81	-0.0033625665
114	0x3ac8a0d9	0.0015306725
115	0xbc2e654d	-0.010644269
116	0xbb092e0d	-0.002093199
117	0x3c33346b	0.01093779
118	0xbb727440	-0.003699556
119	0xbc28d5bc	-0.0103048645
120	0xbbf55862	-0.0074873427
121	0x3c04af19	0.008098387
122	0x3b0d1602	0.002152801
123	0xbb1a8939	-0.0023580326
124	0x3b714d48	0.0036819745
125	0x3af8bc92	0.0018977097
126	0xbb198aa0	-0.0023428574
127	0x3ad1cb70	0.0016006064
